{"format": "graph-model", "generatedBy": "2.5.0", "convertedBy": "TensorFlow.js Converter v3.8.0", "signature": {"inputs": {"input_1": {"name": "input_1:0", "dtype": "DT_FLOAT", "tensorShape": {"dim": [{"size": "-1"}, {"size": "1024"}, {"size": "1"}]}}}, "outputs": {"reshape": {"name": "Identity:0", "dtype": "DT_FLOAT", "tensorShape": {"dim": [{"size": "-1"}, {"size": "1024"}, {"size": "2"}]}}}}, "modelTopology": {"node": [{"name": "StatefulPartitionedCall/dcresnet/batch_normalization_32/batchnorm/mul", "op": "Const", "attr": {"dtype": {"type": "DT_FLOAT"}, "value": {"tensor": {"dtype": "DT_FLOAT", "tensorShape": {"dim": [{"size": "512"}]}}}}}, {"name": "StatefulPartitionedCall/dcresnet/batch_normalization_32/batchnorm/sub", "op": "Const", "attr": {"value": {"tensor": {"dtype": "DT_FLOAT", "tensorShape": {"dim": [{"size": "512"}]}}}, "dtype": {"type": "DT_FLOAT"}}}, {"name": "StatefulPartitionedCall/dcresnet/conv1d_35/conv1d/ExpandDims/dim", "op": "Const", "attr": {"dtype": {"type": "DT_INT32"}, "value": {"tensor": {"dtype": "DT_INT32", "tensorShape": {}}}}}, {"name": "StatefulPartitionedCall/dcresnet/conv1d_35/conv1d/ExpandDims_1", "op": "Const", "attr": {"value": {"tensor": {"dtype": "DT_FLOAT", "tensorShape": {"dim": [{"size": "1"}, {"size": "3"}, {"size": "512"}, {"size": "512"}]}}}, "dtype": {"type": "DT_FLOAT"}}}, {"name": "StatefulPartitionedCall/dcresnet/batch_normalization_33/batchnorm/mul", "op": "Const", "attr": {"value": {"tensor": {"dtype": "DT_FLOAT", "tensorShape": {"dim": [{"size": "512"}]}}}, "dtype": {"type": "DT_FLOAT"}}}, {"name": "StatefulPartitionedCall/dcresnet/batch_normalization_33/batchnorm/sub", "op": "Const", "attr": {"dtype": {"type": "DT_FLOAT"}, "value": {"tensor": {"dtype": "DT_FLOAT", "tensorShape": {"dim": [{"size": "512"}]}}}}}, {"name": "StatefulPartitionedCall/dcresnet/conv1d_36/conv1d/ExpandDims/dim", "op": "Const", "attr": {"dtype": {"type": "DT_INT32"}, "value": {"tensor": {"dtype": "DT_INT32", "tensorShape": {}}}}}, {"name": "StatefulPartitionedCall/dcresnet/conv1d_36/conv1d/ExpandDims_1", "op": "Const", "attr": {"dtype": {"type": "DT_FLOAT"}, "value": {"tensor": {"dtype": "DT_FLOAT", "tensorShape": {"dim": [{"size": "1"}, {"size": "3"}, {"size": "512"}, {"size": "512"}]}}}}}, {"name": "StatefulPartitionedCall/dcresnet/batch_normalization_30/batchnorm/mul", "op": "Const", "attr": {"dtype": {"type": "DT_FLOAT"}, "value": {"tensor": {"dtype": "DT_FLOAT", "tensorShape": {"dim": [{"size": "512"}]}}}}}, {"name": "StatefulPartitionedCall/dcresnet/batch_normalization_30/batchnorm/sub", "op": "Const", "attr": {"value": {"tensor": {"dtype": "DT_FLOAT", "tensorShape": {"dim": [{"size": "512"}]}}}, "dtype": {"type": "DT_FLOAT"}}}, {"name": "StatefulPartitionedCall/dcresnet/conv1d_33/conv1d/ExpandDims/dim", "op": "Const", "attr": {"value": {"tensor": {"dtype": "DT_INT32", "tensorShape": {}}}, "dtype": {"type": "DT_INT32"}}}, {"name": "StatefulPartitionedCall/dcresnet/conv1d_33/conv1d/ExpandDims_1", "op": "Const", "attr": {"dtype": {"type": "DT_FLOAT"}, "value": {"tensor": {"dtype": "DT_FLOAT", "tensorShape": {"dim": [{"size": "1"}, {"size": "3"}, {"size": "512"}, {"size": "512"}]}}}}}, {"name": "StatefulPartitionedCall/dcresnet/batch_normalization_31/batchnorm/mul", "op": "Const", "attr": {"dtype": {"type": "DT_FLOAT"}, "value": {"tensor": {"dtype": "DT_FLOAT", "tensorShape": {"dim": [{"size": "512"}]}}}}}, {"name": "StatefulPartitionedCall/dcresnet/batch_normalization_31/batchnorm/sub", "op": "Const", "attr": {"value": {"tensor": {"dtype": "DT_FLOAT", "tensorShape": {"dim": [{"size": "512"}]}}}, "dtype": {"type": "DT_FLOAT"}}}, {"name": "StatefulPartitionedCall/dcresnet/conv1d_34/conv1d/ExpandDims/dim", "op": "Const", "attr": {"value": {"tensor": {"dtype": "DT_INT32", "tensorShape": {}}}, "dtype": {"type": "DT_INT32"}}}, {"name": "StatefulPartitionedCall/dcresnet/conv1d_34/conv1d/ExpandDims_1", "op": "Const", "attr": {"dtype": {"type": "DT_FLOAT"}, "value": {"tensor": {"dtype": "DT_FLOAT", "tensorShape": {"dim": [{"size": "1"}, {"size": "3"}, {"size": "512"}, {"size": "512"}]}}}}}, {"name": "StatefulPartitionedCall/dcresnet/conv1d_30/conv1d/ExpandDims/dim", "op": "Const", "attr": {"dtype": {"type": "DT_INT32"}, "value": {"tensor": {"dtype": "DT_INT32", "tensorShape": {}}}}}, {"name": "StatefulPartitionedCall/dcresnet/conv1d_30/conv1d/ExpandDims_1", "op": "Const", "attr": {"dtype": {"type": "DT_FLOAT"}, "value": {"tensor": {"dtype": "DT_FLOAT", "tensorShape": {"dim": [{"size": "1"}, {"size": "3"}, {"size": "256"}, {"size": "512"}]}}}}}, {"name": "StatefulPartitionedCall/dcresnet/batch_normalization_29/batchnorm/mul", "op": "Const", "attr": {"dtype": {"type": "DT_FLOAT"}, "value": {"tensor": {"dtype": "DT_FLOAT", "tensorShape": {"dim": [{"size": "512"}]}}}}}, {"name": "StatefulPartitionedCall/dcresnet/batch_normalization_29/batchnorm/sub", "op": "Const", "attr": {"value": {"tensor": {"dtype": "DT_FLOAT", "tensorShape": {"dim": [{"size": "512"}]}}}, "dtype": {"type": "DT_FLOAT"}}}, {"name": "StatefulPartitionedCall/dcresnet/conv1d_31/conv1d/ExpandDims/dim", "op": "Const", "attr": {"dtype": {"type": "DT_INT32"}, "value": {"tensor": {"dtype": "DT_INT32", "tensorShape": {}}}}}, {"name": "StatefulPartitionedCall/dcresnet/conv1d_31/conv1d/ExpandDims_1", "op": "Const", "attr": {"value": {"tensor": {"dtype": "DT_FLOAT", "tensorShape": {"dim": [{"size": "1"}, {"size": "3"}, {"size": "512"}, {"size": "512"}]}}}, "dtype": {"type": "DT_FLOAT"}}}, {"name": "StatefulPartitionedCall/dcresnet/batch_normalization_26/batchnorm/mul", "op": "Const", "attr": {"dtype": {"type": "DT_FLOAT"}, "value": {"tensor": {"dtype": "DT_FLOAT", "tensorShape": {"dim": [{"size": "256"}]}}}}}, {"name": "StatefulPartitionedCall/dcresnet/batch_normalization_26/batchnorm/sub", "op": "Const", "attr": {"value": {"tensor": {"dtype": "DT_FLOAT", "tensorShape": {"dim": [{"size": "256"}]}}}, "dtype": {"type": "DT_FLOAT"}}}, {"name": "StatefulPartitionedCall/dcresnet/conv1d_28/conv1d/ExpandDims/dim", "op": "Const", "attr": {"value": {"tensor": {"dtype": "DT_INT32", "tensorShape": {}}}, "dtype": {"type": "DT_INT32"}}}, {"name": "StatefulPartitionedCall/dcresnet/conv1d_28/conv1d/ExpandDims_1", "op": "Const", "attr": {"dtype": {"type": "DT_FLOAT"}, "value": {"tensor": {"dtype": "DT_FLOAT", "tensorShape": {"dim": [{"size": "1"}, {"size": "3"}, {"size": "256"}, {"size": "256"}]}}}}}, {"name": "StatefulPartitionedCall/dcresnet/batch_normalization_27/batchnorm/mul", "op": "Const", "attr": {"dtype": {"type": "DT_FLOAT"}, "value": {"tensor": {"dtype": "DT_FLOAT", "tensorShape": {"dim": [{"size": "256"}]}}}}}, {"name": "StatefulPartitionedCall/dcresnet/batch_normalization_27/batchnorm/sub", "op": "Const", "attr": {"dtype": {"type": "DT_FLOAT"}, "value": {"tensor": {"dtype": "DT_FLOAT", "tensorShape": {"dim": [{"size": "256"}]}}}}}, {"name": "StatefulPartitionedCall/dcresnet/conv1d_29/conv1d/ExpandDims/dim", "op": "Const", "attr": {"dtype": {"type": "DT_INT32"}, "value": {"tensor": {"dtype": "DT_INT32", "tensorShape": {}}}}}, {"name": "StatefulPartitionedCall/dcresnet/conv1d_29/conv1d/ExpandDims_1", "op": "Const", "attr": {"dtype": {"type": "DT_FLOAT"}, "value": {"tensor": {"dtype": "DT_FLOAT", "tensorShape": {"dim": [{"size": "1"}, {"size": "3"}, {"size": "256"}, {"size": "256"}]}}}}}, {"name": "StatefulPartitionedCall/dcresnet/batch_normalization_24/batchnorm/mul", "op": "Const", "attr": {"dtype": {"type": "DT_FLOAT"}, "value": {"tensor": {"dtype": "DT_FLOAT", "tensorShape": {"dim": [{"size": "256"}]}}}}}, {"name": "StatefulPartitionedCall/dcresnet/batch_normalization_24/batchnorm/sub", "op": "Const", "attr": {"value": {"tensor": {"dtype": "DT_FLOAT", "tensorShape": {"dim": [{"size": "256"}]}}}, "dtype": {"type": "DT_FLOAT"}}}, {"name": "StatefulPartitionedCall/dcresnet/conv1d_26/conv1d/ExpandDims/dim", "op": "Const", "attr": {"dtype": {"type": "DT_INT32"}, "value": {"tensor": {"dtype": "DT_INT32", "tensorShape": {}}}}}, {"name": "StatefulPartitionedCall/dcresnet/conv1d_26/conv1d/ExpandDims_1", "op": "Const", "attr": {"value": {"tensor": {"dtype": "DT_FLOAT", "tensorShape": {"dim": [{"size": "1"}, {"size": "3"}, {"size": "256"}, {"size": "256"}]}}}, "dtype": {"type": "DT_FLOAT"}}}, {"name": "StatefulPartitionedCall/dcresnet/batch_normalization_25/batchnorm/mul", "op": "Const", "attr": {"dtype": {"type": "DT_FLOAT"}, "value": {"tensor": {"dtype": "DT_FLOAT", "tensorShape": {"dim": [{"size": "256"}]}}}}}, {"name": "StatefulPartitionedCall/dcresnet/batch_normalization_25/batchnorm/sub", "op": "Const", "attr": {"value": {"tensor": {"dtype": "DT_FLOAT", "tensorShape": {"dim": [{"size": "256"}]}}}, "dtype": {"type": "DT_FLOAT"}}}, {"name": "StatefulPartitionedCall/dcresnet/conv1d_27/conv1d/ExpandDims/dim", "op": "Const", "attr": {"value": {"tensor": {"dtype": "DT_INT32", "tensorShape": {}}}, "dtype": {"type": "DT_INT32"}}}, {"name": "StatefulPartitionedCall/dcresnet/conv1d_27/conv1d/ExpandDims_1", "op": "Const", "attr": {"value": {"tensor": {"dtype": "DT_FLOAT", "tensorShape": {"dim": [{"size": "1"}, {"size": "3"}, {"size": "256"}, {"size": "256"}]}}}, "dtype": {"type": "DT_FLOAT"}}}, {"name": "StatefulPartitionedCall/dcresnet/batch_normalization_22/batchnorm/mul", "op": "Const", "attr": {"dtype": {"type": "DT_FLOAT"}, "value": {"tensor": {"dtype": "DT_FLOAT", "tensorShape": {"dim": [{"size": "256"}]}}}}}, {"name": "StatefulPartitionedCall/dcresnet/batch_normalization_22/batchnorm/sub", "op": "Const", "attr": {"dtype": {"type": "DT_FLOAT"}, "value": {"tensor": {"dtype": "DT_FLOAT", "tensorShape": {"dim": [{"size": "256"}]}}}}}, {"name": "StatefulPartitionedCall/dcresnet/conv1d_24/conv1d/ExpandDims/dim", "op": "Const", "attr": {"dtype": {"type": "DT_INT32"}, "value": {"tensor": {"dtype": "DT_INT32", "tensorShape": {}}}}}, {"name": "StatefulPartitionedCall/dcresnet/conv1d_24/conv1d/ExpandDims_1", "op": "Const", "attr": {"value": {"tensor": {"dtype": "DT_FLOAT", "tensorShape": {"dim": [{"size": "1"}, {"size": "3"}, {"size": "256"}, {"size": "256"}]}}}, "dtype": {"type": "DT_FLOAT"}}}, {"name": "StatefulPartitionedCall/dcresnet/batch_normalization_23/batchnorm/mul", "op": "Const", "attr": {"value": {"tensor": {"dtype": "DT_FLOAT", "tensorShape": {"dim": [{"size": "256"}]}}}, "dtype": {"type": "DT_FLOAT"}}}, {"name": "StatefulPartitionedCall/dcresnet/batch_normalization_23/batchnorm/sub", "op": "Const", "attr": {"value": {"tensor": {"dtype": "DT_FLOAT", "tensorShape": {"dim": [{"size": "256"}]}}}, "dtype": {"type": "DT_FLOAT"}}}, {"name": "StatefulPartitionedCall/dcresnet/conv1d_25/conv1d/ExpandDims/dim", "op": "Const", "attr": {"value": {"tensor": {"dtype": "DT_INT32", "tensorShape": {}}}, "dtype": {"type": "DT_INT32"}}}, {"name": "StatefulPartitionedCall/dcresnet/conv1d_25/conv1d/ExpandDims_1", "op": "Const", "attr": {"dtype": {"type": "DT_FLOAT"}, "value": {"tensor": {"dtype": "DT_FLOAT", "tensorShape": {"dim": [{"size": "1"}, {"size": "3"}, {"size": "256"}, {"size": "256"}]}}}}}, {"name": "StatefulPartitionedCall/dcresnet/batch_normalization_20/batchnorm/mul", "op": "Const", "attr": {"dtype": {"type": "DT_FLOAT"}, "value": {"tensor": {"dtype": "DT_FLOAT", "tensorShape": {"dim": [{"size": "256"}]}}}}}, {"name": "StatefulPartitionedCall/dcresnet/batch_normalization_20/batchnorm/sub", "op": "Const", "attr": {"value": {"tensor": {"dtype": "DT_FLOAT", "tensorShape": {"dim": [{"size": "256"}]}}}, "dtype": {"type": "DT_FLOAT"}}}, {"name": "StatefulPartitionedCall/dcresnet/conv1d_22/conv1d/ExpandDims/dim", "op": "Const", "attr": {"value": {"tensor": {"dtype": "DT_INT32", "tensorShape": {}}}, "dtype": {"type": "DT_INT32"}}}, {"name": "StatefulPartitionedCall/dcresnet/conv1d_22/conv1d/ExpandDims_1", "op": "Const", "attr": {"value": {"tensor": {"dtype": "DT_FLOAT", "tensorShape": {"dim": [{"size": "1"}, {"size": "3"}, {"size": "256"}, {"size": "256"}]}}}, "dtype": {"type": "DT_FLOAT"}}}, {"name": "StatefulPartitionedCall/dcresnet/batch_normalization_21/batchnorm/mul", "op": "Const", "attr": {"dtype": {"type": "DT_FLOAT"}, "value": {"tensor": {"dtype": "DT_FLOAT", "tensorShape": {"dim": [{"size": "256"}]}}}}}, {"name": "StatefulPartitionedCall/dcresnet/batch_normalization_21/batchnorm/sub", "op": "Const", "attr": {"value": {"tensor": {"dtype": "DT_FLOAT", "tensorShape": {"dim": [{"size": "256"}]}}}, "dtype": {"type": "DT_FLOAT"}}}, {"name": "StatefulPartitionedCall/dcresnet/conv1d_23/conv1d/ExpandDims/dim", "op": "Const", "attr": {"value": {"tensor": {"dtype": "DT_INT32", "tensorShape": {}}}, "dtype": {"type": "DT_INT32"}}}, {"name": "StatefulPartitionedCall/dcresnet/conv1d_23/conv1d/ExpandDims_1", "op": "Const", "attr": {"dtype": {"type": "DT_FLOAT"}, "value": {"tensor": {"dtype": "DT_FLOAT", "tensorShape": {"dim": [{"size": "1"}, {"size": "3"}, {"size": "256"}, {"size": "256"}]}}}}}, {"name": "StatefulPartitionedCall/dcresnet/batch_normalization_18/batchnorm/mul", "op": "Const", "attr": {"value": {"tensor": {"dtype": "DT_FLOAT", "tensorShape": {"dim": [{"size": "256"}]}}}, "dtype": {"type": "DT_FLOAT"}}}, {"name": "StatefulPartitionedCall/dcresnet/batch_normalization_18/batchnorm/sub", "op": "Const", "attr": {"value": {"tensor": {"dtype": "DT_FLOAT", "tensorShape": {"dim": [{"size": "256"}]}}}, "dtype": {"type": "DT_FLOAT"}}}, {"name": "StatefulPartitionedCall/dcresnet/conv1d_20/conv1d/ExpandDims/dim", "op": "Const", "attr": {"dtype": {"type": "DT_INT32"}, "value": {"tensor": {"dtype": "DT_INT32", "tensorShape": {}}}}}, {"name": "StatefulPartitionedCall/dcresnet/conv1d_20/conv1d/ExpandDims_1", "op": "Const", "attr": {"dtype": {"type": "DT_FLOAT"}, "value": {"tensor": {"dtype": "DT_FLOAT", "tensorShape": {"dim": [{"size": "1"}, {"size": "3"}, {"size": "256"}, {"size": "256"}]}}}}}, {"name": "StatefulPartitionedCall/dcresnet/batch_normalization_19/batchnorm/mul", "op": "Const", "attr": {"dtype": {"type": "DT_FLOAT"}, "value": {"tensor": {"dtype": "DT_FLOAT", "tensorShape": {"dim": [{"size": "256"}]}}}}}, {"name": "StatefulPartitionedCall/dcresnet/batch_normalization_19/batchnorm/sub", "op": "Const", "attr": {"value": {"tensor": {"dtype": "DT_FLOAT", "tensorShape": {"dim": [{"size": "256"}]}}}, "dtype": {"type": "DT_FLOAT"}}}, {"name": "StatefulPartitionedCall/dcresnet/conv1d_21/conv1d/ExpandDims/dim", "op": "Const", "attr": {"value": {"tensor": {"dtype": "DT_INT32", "tensorShape": {}}}, "dtype": {"type": "DT_INT32"}}}, {"name": "StatefulPartitionedCall/dcresnet/conv1d_21/conv1d/ExpandDims_1", "op": "Const", "attr": {"value": {"tensor": {"dtype": "DT_FLOAT", "tensorShape": {"dim": [{"size": "1"}, {"size": "3"}, {"size": "256"}, {"size": "256"}]}}}, "dtype": {"type": "DT_FLOAT"}}}, {"name": "StatefulPartitionedCall/dcresnet/conv1d_17/conv1d/ExpandDims/dim", "op": "Const", "attr": {"value": {"tensor": {"dtype": "DT_INT32", "tensorShape": {}}}, "dtype": {"type": "DT_INT32"}}}, {"name": "StatefulPartitionedCall/dcresnet/conv1d_17/conv1d/ExpandDims_1", "op": "Const", "attr": {"value": {"tensor": {"dtype": "DT_FLOAT", "tensorShape": {"dim": [{"size": "1"}, {"size": "3"}, {"size": "128"}, {"size": "256"}]}}}, "dtype": {"type": "DT_FLOAT"}}}, {"name": "StatefulPartitionedCall/dcresnet/batch_normalization_17/batchnorm/mul", "op": "Const", "attr": {"value": {"tensor": {"dtype": "DT_FLOAT", "tensorShape": {"dim": [{"size": "256"}]}}}, "dtype": {"type": "DT_FLOAT"}}}, {"name": "StatefulPartitionedCall/dcresnet/batch_normalization_17/batchnorm/sub", "op": "Const", "attr": {"value": {"tensor": {"dtype": "DT_FLOAT", "tensorShape": {"dim": [{"size": "256"}]}}}, "dtype": {"type": "DT_FLOAT"}}}, {"name": "StatefulPartitionedCall/dcresnet/conv1d_18/conv1d/ExpandDims/dim", "op": "Const", "attr": {"value": {"tensor": {"dtype": "DT_INT32", "tensorShape": {}}}, "dtype": {"type": "DT_INT32"}}}, {"name": "StatefulPartitionedCall/dcresnet/conv1d_18/conv1d/ExpandDims_1", "op": "Const", "attr": {"dtype": {"type": "DT_FLOAT"}, "value": {"tensor": {"dtype": "DT_FLOAT", "tensorShape": {"dim": [{"size": "1"}, {"size": "3"}, {"size": "256"}, {"size": "256"}]}}}}}, {"name": "StatefulPartitionedCall/dcresnet/batch_normalization_14/batchnorm/mul", "op": "Const", "attr": {"value": {"tensor": {"dtype": "DT_FLOAT", "tensorShape": {"dim": [{"size": "128"}]}}}, "dtype": {"type": "DT_FLOAT"}}}, {"name": "StatefulPartitionedCall/dcresnet/batch_normalization_14/batchnorm/sub", "op": "Const", "attr": {"dtype": {"type": "DT_FLOAT"}, "value": {"tensor": {"dtype": "DT_FLOAT", "tensorShape": {"dim": [{"size": "128"}]}}}}}, {"name": "StatefulPartitionedCall/dcresnet/conv1d_15/conv1d/ExpandDims/dim", "op": "Const", "attr": {"dtype": {"type": "DT_INT32"}, "value": {"tensor": {"dtype": "DT_INT32", "tensorShape": {}}}}}, {"name": "StatefulPartitionedCall/dcresnet/conv1d_15/conv1d/ExpandDims_1", "op": "Const", "attr": {"value": {"tensor": {"dtype": "DT_FLOAT", "tensorShape": {"dim": [{"size": "1"}, {"size": "3"}, {"size": "128"}, {"size": "128"}]}}}, "dtype": {"type": "DT_FLOAT"}}}, {"name": "StatefulPartitionedCall/dcresnet/batch_normalization_15/batchnorm/mul", "op": "Const", "attr": {"value": {"tensor": {"dtype": "DT_FLOAT", "tensorShape": {"dim": [{"size": "128"}]}}}, "dtype": {"type": "DT_FLOAT"}}}, {"name": "StatefulPartitionedCall/dcresnet/batch_normalization_15/batchnorm/sub", "op": "Const", "attr": {"dtype": {"type": "DT_FLOAT"}, "value": {"tensor": {"dtype": "DT_FLOAT", "tensorShape": {"dim": [{"size": "128"}]}}}}}, {"name": "StatefulPartitionedCall/dcresnet/conv1d_16/conv1d/ExpandDims/dim", "op": "Const", "attr": {"value": {"tensor": {"dtype": "DT_INT32", "tensorShape": {}}}, "dtype": {"type": "DT_INT32"}}}, {"name": "StatefulPartitionedCall/dcresnet/conv1d_16/conv1d/ExpandDims_1", "op": "Const", "attr": {"value": {"tensor": {"dtype": "DT_FLOAT", "tensorShape": {"dim": [{"size": "1"}, {"size": "3"}, {"size": "128"}, {"size": "128"}]}}}, "dtype": {"type": "DT_FLOAT"}}}, {"name": "StatefulPartitionedCall/dcresnet/batch_normalization_12/batchnorm/mul", "op": "Const", "attr": {"dtype": {"type": "DT_FLOAT"}, "value": {"tensor": {"dtype": "DT_FLOAT", "tensorShape": {"dim": [{"size": "128"}]}}}}}, {"name": "StatefulPartitionedCall/dcresnet/batch_normalization_12/batchnorm/sub", "op": "Const", "attr": {"value": {"tensor": {"dtype": "DT_FLOAT", "tensorShape": {"dim": [{"size": "128"}]}}}, "dtype": {"type": "DT_FLOAT"}}}, {"name": "StatefulPartitionedCall/dcresnet/conv1d_13/conv1d/ExpandDims/dim", "op": "Const", "attr": {"dtype": {"type": "DT_INT32"}, "value": {"tensor": {"dtype": "DT_INT32", "tensorShape": {}}}}}, {"name": "StatefulPartitionedCall/dcresnet/conv1d_13/conv1d/ExpandDims_1", "op": "Const", "attr": {"dtype": {"type": "DT_FLOAT"}, "value": {"tensor": {"dtype": "DT_FLOAT", "tensorShape": {"dim": [{"size": "1"}, {"size": "3"}, {"size": "128"}, {"size": "128"}]}}}}}, {"name": "StatefulPartitionedCall/dcresnet/batch_normalization_13/batchnorm/mul", "op": "Const", "attr": {"value": {"tensor": {"dtype": "DT_FLOAT", "tensorShape": {"dim": [{"size": "128"}]}}}, "dtype": {"type": "DT_FLOAT"}}}, {"name": "StatefulPartitionedCall/dcresnet/batch_normalization_13/batchnorm/sub", "op": "Const", "attr": {"value": {"tensor": {"dtype": "DT_FLOAT", "tensorShape": {"dim": [{"size": "128"}]}}}, "dtype": {"type": "DT_FLOAT"}}}, {"name": "StatefulPartitionedCall/dcresnet/conv1d_14/conv1d/ExpandDims/dim", "op": "Const", "attr": {"value": {"tensor": {"dtype": "DT_INT32", "tensorShape": {}}}, "dtype": {"type": "DT_INT32"}}}, {"name": "StatefulPartitionedCall/dcresnet/conv1d_14/conv1d/ExpandDims_1", "op": "Const", "attr": {"value": {"tensor": {"dtype": "DT_FLOAT", "tensorShape": {"dim": [{"size": "1"}, {"size": "3"}, {"size": "128"}, {"size": "128"}]}}}, "dtype": {"type": "DT_FLOAT"}}}, {"name": "StatefulPartitionedCall/dcresnet/batch_normalization_10/batchnorm/mul", "op": "Const", "attr": {"dtype": {"type": "DT_FLOAT"}, "value": {"tensor": {"dtype": "DT_FLOAT", "tensorShape": {"dim": [{"size": "128"}]}}}}}, {"name": "StatefulPartitionedCall/dcresnet/batch_normalization_10/batchnorm/sub", "op": "Const", "attr": {"value": {"tensor": {"dtype": "DT_FLOAT", "tensorShape": {"dim": [{"size": "128"}]}}}, "dtype": {"type": "DT_FLOAT"}}}, {"name": "StatefulPartitionedCall/dcresnet/conv1d_11/conv1d/ExpandDims/dim", "op": "Const", "attr": {"dtype": {"type": "DT_INT32"}, "value": {"tensor": {"dtype": "DT_INT32", "tensorShape": {}}}}}, {"name": "StatefulPartitionedCall/dcresnet/conv1d_11/conv1d/ExpandDims_1", "op": "Const", "attr": {"dtype": {"type": "DT_FLOAT"}, "value": {"tensor": {"dtype": "DT_FLOAT", "tensorShape": {"dim": [{"size": "1"}, {"size": "3"}, {"size": "128"}, {"size": "128"}]}}}}}, {"name": "StatefulPartitionedCall/dcresnet/batch_normalization_11/batchnorm/mul", "op": "Const", "attr": {"dtype": {"type": "DT_FLOAT"}, "value": {"tensor": {"dtype": "DT_FLOAT", "tensorShape": {"dim": [{"size": "128"}]}}}}}, {"name": "StatefulPartitionedCall/dcresnet/batch_normalization_11/batchnorm/sub", "op": "Const", "attr": {"dtype": {"type": "DT_FLOAT"}, "value": {"tensor": {"dtype": "DT_FLOAT", "tensorShape": {"dim": [{"size": "128"}]}}}}}, {"name": "StatefulPartitionedCall/dcresnet/conv1d_12/conv1d/ExpandDims/dim", "op": "Const", "attr": {"value": {"tensor": {"dtype": "DT_INT32", "tensorShape": {}}}, "dtype": {"type": "DT_INT32"}}}, {"name": "StatefulPartitionedCall/dcresnet/conv1d_12/conv1d/ExpandDims_1", "op": "Const", "attr": {"dtype": {"type": "DT_FLOAT"}, "value": {"tensor": {"dtype": "DT_FLOAT", "tensorShape": {"dim": [{"size": "1"}, {"size": "3"}, {"size": "128"}, {"size": "128"}]}}}}}, {"name": "StatefulPartitionedCall/dcresnet/conv1d_8/conv1d/ExpandDims/dim", "op": "Const", "attr": {"dtype": {"type": "DT_INT32"}, "value": {"tensor": {"dtype": "DT_INT32", "tensorShape": {}}}}}, {"name": "StatefulPartitionedCall/dcresnet/conv1d_8/conv1d/ExpandDims_1", "op": "Const", "attr": {"value": {"tensor": {"dtype": "DT_FLOAT", "tensorShape": {"dim": [{"size": "1"}, {"size": "3"}, {"size": "64"}, {"size": "128"}]}}}, "dtype": {"type": "DT_FLOAT"}}}, {"name": "StatefulPartitionedCall/dcresnet/batch_normalization_9/batchnorm/mul", "op": "Const", "attr": {"dtype": {"type": "DT_FLOAT"}, "value": {"tensor": {"dtype": "DT_FLOAT", "tensorShape": {"dim": [{"size": "128"}]}}}}}, {"name": "StatefulPartitionedCall/dcresnet/batch_normalization_9/batchnorm/sub", "op": "Const", "attr": {"dtype": {"type": "DT_FLOAT"}, "value": {"tensor": {"dtype": "DT_FLOAT", "tensorShape": {"dim": [{"size": "128"}]}}}}}, {"name": "StatefulPartitionedCall/dcresnet/conv1d_9/conv1d/ExpandDims/dim", "op": "Const", "attr": {"dtype": {"type": "DT_INT32"}, "value": {"tensor": {"dtype": "DT_INT32", "tensorShape": {}}}}}, {"name": "StatefulPartitionedCall/dcresnet/conv1d_9/conv1d/ExpandDims_1", "op": "Const", "attr": {"value": {"tensor": {"dtype": "DT_FLOAT", "tensorShape": {"dim": [{"size": "1"}, {"size": "3"}, {"size": "128"}, {"size": "128"}]}}}, "dtype": {"type": "DT_FLOAT"}}}, {"name": "StatefulPartitionedCall/dcresnet/batch_normalization_6/batchnorm/mul", "op": "Const", "attr": {"value": {"tensor": {"dtype": "DT_FLOAT", "tensorShape": {"dim": [{"size": "64"}]}}}, "dtype": {"type": "DT_FLOAT"}}}, {"name": "StatefulPartitionedCall/dcresnet/batch_normalization_6/batchnorm/sub", "op": "Const", "attr": {"value": {"tensor": {"dtype": "DT_FLOAT", "tensorShape": {"dim": [{"size": "64"}]}}}, "dtype": {"type": "DT_FLOAT"}}}, {"name": "StatefulPartitionedCall/dcresnet/conv1d_6/conv1d/ExpandDims/dim", "op": "Const", "attr": {"dtype": {"type": "DT_INT32"}, "value": {"tensor": {"dtype": "DT_INT32", "tensorShape": {}}}}}, {"name": "StatefulPartitionedCall/dcresnet/conv1d_6/conv1d/ExpandDims_1", "op": "Const", "attr": {"dtype": {"type": "DT_FLOAT"}, "value": {"tensor": {"dtype": "DT_FLOAT", "tensorShape": {"dim": [{"size": "1"}, {"size": "3"}, {"size": "64"}, {"size": "64"}]}}}}}, {"name": "StatefulPartitionedCall/dcresnet/batch_normalization_7/batchnorm/mul", "op": "Const", "attr": {"value": {"tensor": {"dtype": "DT_FLOAT", "tensorShape": {"dim": [{"size": "64"}]}}}, "dtype": {"type": "DT_FLOAT"}}}, {"name": "StatefulPartitionedCall/dcresnet/batch_normalization_7/batchnorm/sub", "op": "Const", "attr": {"dtype": {"type": "DT_FLOAT"}, "value": {"tensor": {"dtype": "DT_FLOAT", "tensorShape": {"dim": [{"size": "64"}]}}}}}, {"name": "StatefulPartitionedCall/dcresnet/conv1d_7/conv1d/ExpandDims/dim", "op": "Const", "attr": {"value": {"tensor": {"dtype": "DT_INT32", "tensorShape": {}}}, "dtype": {"type": "DT_INT32"}}}, {"name": "StatefulPartitionedCall/dcresnet/conv1d_7/conv1d/ExpandDims_1", "op": "Const", "attr": {"dtype": {"type": "DT_FLOAT"}, "value": {"tensor": {"dtype": "DT_FLOAT", "tensorShape": {"dim": [{"size": "1"}, {"size": "3"}, {"size": "64"}, {"size": "64"}]}}}}}, {"name": "StatefulPartitionedCall/dcresnet/batch_normalization_4/batchnorm/mul", "op": "Const", "attr": {"dtype": {"type": "DT_FLOAT"}, "value": {"tensor": {"dtype": "DT_FLOAT", "tensorShape": {"dim": [{"size": "64"}]}}}}}, {"name": "StatefulPartitionedCall/dcresnet/batch_normalization_4/batchnorm/sub", "op": "Const", "attr": {"dtype": {"type": "DT_FLOAT"}, "value": {"tensor": {"dtype": "DT_FLOAT", "tensorShape": {"dim": [{"size": "64"}]}}}}}, {"name": "StatefulPartitionedCall/dcresnet/conv1d_4/conv1d/ExpandDims/dim", "op": "Const", "attr": {"dtype": {"type": "DT_INT32"}, "value": {"tensor": {"dtype": "DT_INT32", "tensorShape": {}}}}}, {"name": "StatefulPartitionedCall/dcresnet/conv1d_4/conv1d/ExpandDims_1", "op": "Const", "attr": {"dtype": {"type": "DT_FLOAT"}, "value": {"tensor": {"dtype": "DT_FLOAT", "tensorShape": {"dim": [{"size": "1"}, {"size": "3"}, {"size": "64"}, {"size": "64"}]}}}}}, {"name": "StatefulPartitionedCall/dcresnet/batch_normalization_5/batchnorm/mul", "op": "Const", "attr": {"dtype": {"type": "DT_FLOAT"}, "value": {"tensor": {"dtype": "DT_FLOAT", "tensorShape": {"dim": [{"size": "64"}]}}}}}, {"name": "StatefulPartitionedCall/dcresnet/batch_normalization_5/batchnorm/sub", "op": "Const", "attr": {"dtype": {"type": "DT_FLOAT"}, "value": {"tensor": {"dtype": "DT_FLOAT", "tensorShape": {"dim": [{"size": "64"}]}}}}}, {"name": "StatefulPartitionedCall/dcresnet/conv1d_5/conv1d/ExpandDims/dim", "op": "Const", "attr": {"value": {"tensor": {"dtype": "DT_INT32", "tensorShape": {}}}, "dtype": {"type": "DT_INT32"}}}, {"name": "StatefulPartitionedCall/dcresnet/conv1d_5/conv1d/ExpandDims_1", "op": "Const", "attr": {"dtype": {"type": "DT_FLOAT"}, "value": {"tensor": {"dtype": "DT_FLOAT", "tensorShape": {"dim": [{"size": "1"}, {"size": "3"}, {"size": "64"}, {"size": "64"}]}}}}}, {"name": "StatefulPartitionedCall/dcresnet/conv1d_1/conv1d/ExpandDims/dim", "op": "Const", "attr": {"dtype": {"type": "DT_INT32"}, "value": {"tensor": {"dtype": "DT_INT32", "tensorShape": {}}}}}, {"name": "StatefulPartitionedCall/dcresnet/conv1d_1/conv1d/ExpandDims_1", "op": "Const", "attr": {"value": {"tensor": {"dtype": "DT_FLOAT", "tensorShape": {"dim": [{"size": "1"}, {"size": "3"}, {"size": "64"}, {"size": "64"}]}}}, "dtype": {"type": "DT_FLOAT"}}}, {"name": "StatefulPartitionedCall/dcresnet/batch_normalization_3/batchnorm/mul", "op": "Const", "attr": {"value": {"tensor": {"dtype": "DT_FLOAT", "tensorShape": {"dim": [{"size": "64"}]}}}, "dtype": {"type": "DT_FLOAT"}}}, {"name": "StatefulPartitionedCall/dcresnet/batch_normalization_3/batchnorm/sub", "op": "Const", "attr": {"dtype": {"type": "DT_FLOAT"}, "value": {"tensor": {"dtype": "DT_FLOAT", "tensorShape": {"dim": [{"size": "64"}]}}}}}, {"name": "StatefulPartitionedCall/dcresnet/conv1d_2/conv1d/ExpandDims/dim", "op": "Const", "attr": {"dtype": {"type": "DT_INT32"}, "value": {"tensor": {"dtype": "DT_INT32", "tensorShape": {}}}}}, {"name": "StatefulPartitionedCall/dcresnet/conv1d_2/conv1d/ExpandDims_1", "op": "Const", "attr": {"value": {"tensor": {"dtype": "DT_FLOAT", "tensorShape": {"dim": [{"size": "1"}, {"size": "3"}, {"size": "64"}, {"size": "64"}]}}}, "dtype": {"type": "DT_FLOAT"}}}, {"name": "StatefulPartitionedCall/dcresnet/batch_normalization/batchnorm/mul", "op": "Const", "attr": {"value": {"tensor": {"dtype": "DT_FLOAT", "tensorShape": {"dim": [{"size": "1"}]}}}, "dtype": {"type": "DT_FLOAT"}}}, {"name": "StatefulPartitionedCall/dcresnet/batch_normalization/batchnorm/sub", "op": "Const", "attr": {"value": {"tensor": {"dtype": "DT_FLOAT", "tensorShape": {"dim": [{"size": "1"}]}}}, "dtype": {"type": "DT_FLOAT"}}}, {"name": "StatefulPartitionedCall/dcresnet/conv1d/conv1d/ExpandDims/dim", "op": "Const", "attr": {"value": {"tensor": {"dtype": "DT_INT32", "tensorShape": {}}}, "dtype": {"type": "DT_INT32"}}}, {"name": "StatefulPartitionedCall/dcresnet/conv1d/conv1d/ExpandDims_1", "op": "Const", "attr": {"value": {"tensor": {"dtype": "DT_FLOAT", "tensorShape": {"dim": [{"size": "1"}, {"size": "7"}, {"size": "1"}, {"size": "64"}]}}}, "dtype": {"type": "DT_FLOAT"}}}, {"name": "StatefulPartitionedCall/dcresnet/batch_normalization_1/batchnorm/mul", "op": "Const", "attr": {"value": {"tensor": {"dtype": "DT_FLOAT", "tensorShape": {"dim": [{"size": "64"}]}}}, "dtype": {"type": "DT_FLOAT"}}}, {"name": "StatefulPartitionedCall/dcresnet/batch_normalization_1/batchnorm/sub", "op": "Const", "attr": {"dtype": {"type": "DT_FLOAT"}, "value": {"tensor": {"dtype": "DT_FLOAT", "tensorShape": {"dim": [{"size": "64"}]}}}}}, {"name": "StatefulPartitionedCall/dcresnet/max_pooling1d/ExpandDims/dim", "op": "Const", "attr": {"value": {"tensor": {"dtype": "DT_INT32", "tensorShape": {}}}, "dtype": {"type": "DT_INT32"}}}, {"name": "StatefulPartitionedCall/dcresnet/batch_normalization_2/batchnorm/mul", "op": "Const", "attr": {"dtype": {"type": "DT_FLOAT"}, "value": {"tensor": {"dtype": "DT_FLOAT", "tensorShape": {"dim": [{"size": "64"}]}}}}}, {"name": "StatefulPartitionedCall/dcresnet/batch_normalization_2/batchnorm/sub", "op": "Const", "attr": {"value": {"tensor": {"dtype": "DT_FLOAT", "tensorShape": {"dim": [{"size": "64"}]}}}, "dtype": {"type": "DT_FLOAT"}}}, {"name": "StatefulPartitionedCall/dcresnet/conv1d_3/conv1d/ExpandDims/dim", "op": "Const", "attr": {"dtype": {"type": "DT_INT32"}, "value": {"tensor": {"dtype": "DT_INT32", "tensorShape": {}}}}}, {"name": "StatefulPartitionedCall/dcresnet/conv1d_3/conv1d/ExpandDims_1", "op": "Const", "attr": {"dtype": {"type": "DT_FLOAT"}, "value": {"tensor": {"dtype": "DT_FLOAT", "tensorShape": {"dim": [{"size": "1"}, {"size": "1"}, {"size": "64"}, {"size": "64"}]}}}}}, {"name": "StatefulPartitionedCall/dcresnet/batch_normalization_8/batchnorm/mul", "op": "Const", "attr": {"dtype": {"type": "DT_FLOAT"}, "value": {"tensor": {"dtype": "DT_FLOAT", "tensorShape": {"dim": [{"size": "64"}]}}}}}, {"name": "StatefulPartitionedCall/dcresnet/batch_normalization_8/batchnorm/sub", "op": "Const", "attr": {"dtype": {"type": "DT_FLOAT"}, "value": {"tensor": {"dtype": "DT_FLOAT", "tensorShape": {"dim": [{"size": "64"}]}}}}}, {"name": "StatefulPartitionedCall/dcresnet/conv1d_10/conv1d/ExpandDims/dim", "op": "Const", "attr": {"value": {"tensor": {"dtype": "DT_INT32", "tensorShape": {}}}, "dtype": {"type": "DT_INT32"}}}, {"name": "StatefulPartitionedCall/dcresnet/conv1d_10/conv1d/ExpandDims_1", "op": "Const", "attr": {"dtype": {"type": "DT_FLOAT"}, "value": {"tensor": {"dtype": "DT_FLOAT", "tensorShape": {"dim": [{"size": "1"}, {"size": "1"}, {"size": "64"}, {"size": "128"}]}}}}}, {"name": "StatefulPartitionedCall/dcresnet/batch_normalization_16/batchnorm/mul", "op": "Const", "attr": {"value": {"tensor": {"dtype": "DT_FLOAT", "tensorShape": {"dim": [{"size": "128"}]}}}, "dtype": {"type": "DT_FLOAT"}}}, {"name": "StatefulPartitionedCall/dcresnet/batch_normalization_16/batchnorm/sub", "op": "Const", "attr": {"value": {"tensor": {"dtype": "DT_FLOAT", "tensorShape": {"dim": [{"size": "128"}]}}}, "dtype": {"type": "DT_FLOAT"}}}, {"name": "StatefulPartitionedCall/dcresnet/conv1d_19/conv1d/ExpandDims/dim", "op": "Const", "attr": {"dtype": {"type": "DT_INT32"}, "value": {"tensor": {"dtype": "DT_INT32", "tensorShape": {}}}}}, {"name": "StatefulPartitionedCall/dcresnet/conv1d_19/conv1d/ExpandDims_1", "op": "Const", "attr": {"value": {"tensor": {"dtype": "DT_FLOAT", "tensorShape": {"dim": [{"size": "1"}, {"size": "1"}, {"size": "128"}, {"size": "256"}]}}}, "dtype": {"type": "DT_FLOAT"}}}, {"name": "StatefulPartitionedCall/dcresnet/batch_normalization_28/batchnorm/mul", "op": "Const", "attr": {"dtype": {"type": "DT_FLOAT"}, "value": {"tensor": {"dtype": "DT_FLOAT", "tensorShape": {"dim": [{"size": "256"}]}}}}}, {"name": "StatefulPartitionedCall/dcresnet/batch_normalization_28/batchnorm/sub", "op": "Const", "attr": {"dtype": {"type": "DT_FLOAT"}, "value": {"tensor": {"dtype": "DT_FLOAT", "tensorShape": {"dim": [{"size": "256"}]}}}}}, {"name": "StatefulPartitionedCall/dcresnet/conv1d_32/conv1d/ExpandDims/dim", "op": "Const", "attr": {"dtype": {"type": "DT_INT32"}, "value": {"tensor": {"dtype": "DT_INT32", "tensorShape": {}}}}}, {"name": "StatefulPartitionedCall/dcresnet/conv1d_32/conv1d/ExpandDims_1", "op": "Const", "attr": {"dtype": {"type": "DT_FLOAT"}, "value": {"tensor": {"dtype": "DT_FLOAT", "tensorShape": {"dim": [{"size": "1"}, {"size": "1"}, {"size": "256"}, {"size": "512"}]}}}}}, {"name": "StatefulPartitionedCall/dcresnet/batch_normalization_34/batchnorm/mul", "op": "Const", "attr": {"value": {"tensor": {"dtype": "DT_FLOAT", "tensorShape": {"dim": [{"size": "512"}]}}}, "dtype": {"type": "DT_FLOAT"}}}, {"name": "StatefulPartitionedCall/dcresnet/batch_normalization_34/batchnorm/sub", "op": "Const", "attr": {"dtype": {"type": "DT_FLOAT"}, "value": {"tensor": {"dtype": "DT_FLOAT", "tensorShape": {"dim": [{"size": "512"}]}}}}}, {"name": "StatefulPartitionedCall/dcresnet/flatten/Const", "op": "Const", "attr": {"value": {"tensor": {"dtype": "DT_INT32", "tensorShape": {"dim": [{"size": "2"}]}}}, "dtype": {"type": "DT_INT32"}}}, {"name": "StatefulPartitionedCall/dcresnet/dense/MatMul/ReadVariableOp", "op": "Const", "attr": {"value": {"tensor": {"dtype": "DT_FLOAT", "tensorShape": {"dim": [{"size": "16384"}, {"size": "2048"}]}}}, "dtype": {"type": "DT_FLOAT"}}}, {"name": "StatefulPartitionedCall/dcresnet/dense/BiasAdd/ReadVariableOp", "op": "Const", "attr": {"value": {"tensor": {"dtype": "DT_FLOAT", "tensorShape": {"dim": [{"size": "2048"}]}}}, "dtype": {"type": "DT_FLOAT"}}}, {"name": "StatefulPartitionedCall/dcresnet/reshape/strided_slice/stack", "op": "Const", "attr": {"value": {"tensor": {"dtype": "DT_INT32", "tensorShape": {"dim": [{"size": "1"}]}}}, "dtype": {"type": "DT_INT32"}}}, {"name": "StatefulPartitionedCall/dcresnet/reshape/strided_slice/stack_1", "op": "Const", "attr": {"dtype": {"type": "DT_INT32"}, "value": {"tensor": {"dtype": "DT_INT32", "tensorShape": {"dim": [{"size": "1"}]}}}}}, {"name": "StatefulPartitionedCall/dcresnet/reshape/strided_slice/stack_2", "op": "Const", "attr": {"value": {"tensor": {"dtype": "DT_INT32", "tensorShape": {"dim": [{"size": "1"}]}}}, "dtype": {"type": "DT_INT32"}}}, {"name": "StatefulPartitionedCall/dcresnet/reshape/Reshape/shape/1", "op": "Const", "attr": {"dtype": {"type": "DT_INT32"}, "value": {"tensor": {"dtype": "DT_INT32", "tensorShape": {}}}}}, {"name": "StatefulPartitionedCall/dcresnet/reshape/Reshape/shape/2", "op": "Const", "attr": {"value": {"tensor": {"dtype": "DT_INT32", "tensorShape": {}}}, "dtype": {"type": "DT_INT32"}}}, {"name": "input_1", "op": "Placeholder", "attr": {"dtype": {"type": "DT_FLOAT"}, "shape": {"shape": {"dim": [{"size": "-1"}, {"size": "1024"}, {"size": "1"}]}}}}, {"name": "StatefulPartitionedCall/dcresnet/batch_normalization/batchnorm/mul_1", "op": "Mul", "input": ["input_1", "StatefulPartitionedCall/dcresnet/batch_normalization/batchnorm/mul"], "attr": {"T": {"type": "DT_FLOAT"}}}, {"name": "StatefulPartitionedCall/dcresnet/batch_normalization/batchnorm/add_1", "op": "AddV2", "input": ["StatefulPartitionedCall/dcresnet/batch_normalization/batchnorm/mul_1", "StatefulPartitionedCall/dcresnet/batch_normalization/batchnorm/sub"], "attr": {"T": {"type": "DT_FLOAT"}}}, {"name": "StatefulPartitionedCall/dcresnet/conv1d/conv1d/ExpandDims", "op": "ExpandDims", "input": ["StatefulPartitionedCall/dcresnet/batch_normalization/batchnorm/add_1", "StatefulPartitionedCall/dcresnet/conv1d/conv1d/ExpandDims/dim"], "attr": {"T": {"type": "DT_FLOAT"}, "Tdim": {"type": "DT_INT32"}}}, {"name": "StatefulPartitionedCall/dcresnet/conv1d/conv1d", "op": "Conv2D", "input": ["StatefulPartitionedCall/dcresnet/conv1d/conv1d/ExpandDims", "StatefulPartitionedCall/dcresnet/conv1d/conv1d/ExpandDims_1"], "device": "/device:CPU:0", "attr": {"dilations": {"list": {"i": ["1", "1", "1", "1"]}}, "strides": {"list": {"i": ["1", "1", "2", "1"]}}, "use_cudnn_on_gpu": {"b": true}, "explicit_paddings": {"list": {}}, "padding": {"s": "U0FNRQ=="}, "data_format": {"s": "TkhXQw=="}, "T": {"type": "DT_FLOAT"}}}, {"name": "StatefulPartitionedCall/dcresnet/conv1d/conv1d/Squeeze", "op": "Squeeze", "input": ["StatefulPartitionedCall/dcresnet/conv1d/conv1d"], "attr": {"T": {"type": "DT_FLOAT"}, "squeeze_dims": {"list": {"i": ["-3"]}}}}, {"name": "StatefulPartitionedCall/dcresnet/batch_normalization_1/batchnorm/mul_1", "op": "Mul", "input": ["StatefulPartitionedCall/dcresnet/conv1d/conv1d/Squeeze", "StatefulPartitionedCall/dcresnet/batch_normalization_1/batchnorm/mul"], "attr": {"T": {"type": "DT_FLOAT"}}}, {"name": "StatefulPartitionedCall/dcresnet/batch_normalization_1/batchnorm/add_1", "op": "AddV2", "input": ["StatefulPartitionedCall/dcresnet/batch_normalization_1/batchnorm/mul_1", "StatefulPartitionedCall/dcresnet/batch_normalization_1/batchnorm/sub"], "attr": {"T": {"type": "DT_FLOAT"}}}, {"name": "StatefulPartitionedCall/dcresnet/activation/Relu", "op": "Relu", "input": ["StatefulPartitionedCall/dcresnet/batch_normalization_1/batchnorm/add_1"], "attr": {"T": {"type": "DT_FLOAT"}}}, {"name": "StatefulPartitionedCall/dcresnet/max_pooling1d/ExpandDims", "op": "ExpandDims", "input": ["StatefulPartitionedCall/dcresnet/activation/Relu", "StatefulPartitionedCall/dcresnet/max_pooling1d/ExpandDims/dim"], "attr": {"Tdim": {"type": "DT_INT32"}, "T": {"type": "DT_FLOAT"}}}, {"name": "StatefulPartitionedCall/dcresnet/max_pooling1d/MaxPool", "op": "MaxPool", "input": ["StatefulPartitionedCall/dcresnet/max_pooling1d/ExpandDims"], "attr": {"padding": {"s": "VkFMSUQ="}, "ksize": {"list": {"i": ["1", "3", "1", "1"]}}, "strides": {"list": {"i": ["1", "2", "1", "1"]}}, "T": {"type": "DT_FLOAT"}, "data_format": {"s": "TkhXQw=="}, "explicit_paddings": {"list": {}}}}, {"name": "StatefulPartitionedCall/dcresnet/max_pooling1d/Squeeze", "op": "Squeeze", "input": ["StatefulPartitionedCall/dcresnet/max_pooling1d/MaxPool"], "attr": {"T": {"type": "DT_FLOAT"}, "squeeze_dims": {"list": {"i": ["2"]}}}}, {"name": "StatefulPartitionedCall/dcresnet/batch_normalization_2/batchnorm/mul_1", "op": "Mul", "input": ["StatefulPartitionedCall/dcresnet/max_pooling1d/Squeeze", "StatefulPartitionedCall/dcresnet/batch_normalization_2/batchnorm/mul"], "attr": {"T": {"type": "DT_FLOAT"}}}, {"name": "StatefulPartitionedCall/dcresnet/batch_normalization_2/batchnorm/add_1", "op": "AddV2", "input": ["StatefulPartitionedCall/dcresnet/batch_normalization_2/batchnorm/mul_1", "StatefulPartitionedCall/dcresnet/batch_normalization_2/batchnorm/sub"], "attr": {"T": {"type": "DT_FLOAT"}}}, {"name": "StatefulPartitionedCall/dcresnet/activation_1/Relu", "op": "Relu", "input": ["StatefulPartitionedCall/dcresnet/batch_normalization_2/batchnorm/add_1"], "attr": {"T": {"type": "DT_FLOAT"}}}, {"name": "StatefulPartitionedCall/dcresnet/conv1d_1/conv1d/ExpandDims", "op": "ExpandDims", "input": ["StatefulPartitionedCall/dcresnet/activation_1/Relu", "StatefulPartitionedCall/dcresnet/conv1d_1/conv1d/ExpandDims/dim"], "attr": {"Tdim": {"type": "DT_INT32"}, "T": {"type": "DT_FLOAT"}}}, {"name": "StatefulPartitionedCall/dcresnet/conv1d_3/conv1d/ExpandDims", "op": "ExpandDims", "input": ["StatefulPartitionedCall/dcresnet/activation_1/Relu", "StatefulPartitionedCall/dcresnet/conv1d_3/conv1d/ExpandDims/dim"], "attr": {"T": {"type": "DT_FLOAT"}, "Tdim": {"type": "DT_INT32"}}}, {"name": "StatefulPartitionedCall/dcresnet/conv1d_1/conv1d", "op": "Conv2D", "input": ["StatefulPartitionedCall/dcresnet/conv1d_1/conv1d/ExpandDims", "StatefulPartitionedCall/dcresnet/conv1d_1/conv1d/ExpandDims_1"], "device": "/device:CPU:0", "attr": {"padding": {"s": "U0FNRQ=="}, "strides": {"list": {"i": ["1", "1", "1", "1"]}}, "use_cudnn_on_gpu": {"b": true}, "explicit_paddings": {"list": {}}, "T": {"type": "DT_FLOAT"}, "data_format": {"s": "TkhXQw=="}, "dilations": {"list": {"i": ["1", "1", "1", "1"]}}}}, {"name": "StatefulPartitionedCall/dcresnet/conv1d_3/conv1d", "op": "Conv2D", "input": ["StatefulPartitionedCall/dcresnet/conv1d_3/conv1d/ExpandDims", "StatefulPartitionedCall/dcresnet/conv1d_3/conv1d/ExpandDims_1"], "device": "/device:CPU:0", "attr": {"use_cudnn_on_gpu": {"b": true}, "padding": {"s": "U0FNRQ=="}, "T": {"type": "DT_FLOAT"}, "dilations": {"list": {"i": ["1", "1", "1", "1"]}}, "strides": {"list": {"i": ["1", "1", "1", "1"]}}, "data_format": {"s": "TkhXQw=="}, "explicit_paddings": {"list": {}}}}, {"name": "StatefulPartitionedCall/dcresnet/conv1d_1/conv1d/Squeeze", "op": "Squeeze", "input": ["StatefulPartitionedCall/dcresnet/conv1d_1/conv1d"], "attr": {"T": {"type": "DT_FLOAT"}, "squeeze_dims": {"list": {"i": ["-3"]}}}}, {"name": "StatefulPartitionedCall/dcresnet/conv1d_3/conv1d/Squeeze", "op": "Squeeze", "input": ["StatefulPartitionedCall/dcresnet/conv1d_3/conv1d"], "attr": {"T": {"type": "DT_FLOAT"}, "squeeze_dims": {"list": {"i": ["-3"]}}}}, {"name": "StatefulPartitionedCall/dcresnet/batch_normalization_3/batchnorm/mul_1", "op": "Mul", "input": ["StatefulPartitionedCall/dcresnet/conv1d_1/conv1d/Squeeze", "StatefulPartitionedCall/dcresnet/batch_normalization_3/batchnorm/mul"], "attr": {"T": {"type": "DT_FLOAT"}}}, {"name": "StatefulPartitionedCall/dcresnet/batch_normalization_3/batchnorm/add_1", "op": "AddV2", "input": ["StatefulPartitionedCall/dcresnet/batch_normalization_3/batchnorm/mul_1", "StatefulPartitionedCall/dcresnet/batch_normalization_3/batchnorm/sub"], "attr": {"T": {"type": "DT_FLOAT"}}}, {"name": "StatefulPartitionedCall/dcresnet/activation_2/Relu", "op": "Relu", "input": ["StatefulPartitionedCall/dcresnet/batch_normalization_3/batchnorm/add_1"], "attr": {"T": {"type": "DT_FLOAT"}}}, {"name": "StatefulPartitionedCall/dcresnet/conv1d_2/conv1d/ExpandDims", "op": "ExpandDims", "input": ["StatefulPartitionedCall/dcresnet/activation_2/Relu", "StatefulPartitionedCall/dcresnet/conv1d_2/conv1d/ExpandDims/dim"], "attr": {"T": {"type": "DT_FLOAT"}, "Tdim": {"type": "DT_INT32"}}}, {"name": "StatefulPartitionedCall/dcresnet/conv1d_2/conv1d", "op": "Conv2D", "input": ["StatefulPartitionedCall/dcresnet/conv1d_2/conv1d/ExpandDims", "StatefulPartitionedCall/dcresnet/conv1d_2/conv1d/ExpandDims_1"], "device": "/device:CPU:0", "attr": {"strides": {"list": {"i": ["1", "1", "1", "1"]}}, "explicit_paddings": {"list": {}}, "data_format": {"s": "TkhXQw=="}, "padding": {"s": "U0FNRQ=="}, "dilations": {"list": {"i": ["1", "1", "1", "1"]}}, "use_cudnn_on_gpu": {"b": true}, "T": {"type": "DT_FLOAT"}}}, {"name": "StatefulPartitionedCall/dcresnet/conv1d_2/conv1d/Squeeze", "op": "Squeeze", "input": ["StatefulPartitionedCall/dcresnet/conv1d_2/conv1d"], "attr": {"squeeze_dims": {"list": {"i": ["-3"]}}, "T": {"type": "DT_FLOAT"}}}, {"name": "StatefulPartitionedCall/dcresnet/add/add", "op": "AddV2", "input": ["StatefulPartitionedCall/dcresnet/conv1d_2/conv1d/Squeeze", "StatefulPartitionedCall/dcresnet/conv1d_3/conv1d/Squeeze"], "attr": {"T": {"type": "DT_FLOAT"}}}, {"name": "StatefulPartitionedCall/dcresnet/batch_normalization_4/batchnorm/mul_1", "op": "Mul", "input": ["StatefulPartitionedCall/dcresnet/add/add", "StatefulPartitionedCall/dcresnet/batch_normalization_4/batchnorm/mul"], "attr": {"T": {"type": "DT_FLOAT"}}}, {"name": "StatefulPartitionedCall/dcresnet/batch_normalization_4/batchnorm/add_1", "op": "AddV2", "input": ["StatefulPartitionedCall/dcresnet/batch_normalization_4/batchnorm/mul_1", "StatefulPartitionedCall/dcresnet/batch_normalization_4/batchnorm/sub"], "attr": {"T": {"type": "DT_FLOAT"}}}, {"name": "StatefulPartitionedCall/dcresnet/activation_3/Relu", "op": "Relu", "input": ["StatefulPartitionedCall/dcresnet/batch_normalization_4/batchnorm/add_1"], "attr": {"T": {"type": "DT_FLOAT"}}}, {"name": "StatefulPartitionedCall/dcresnet/conv1d_4/conv1d/ExpandDims", "op": "ExpandDims", "input": ["StatefulPartitionedCall/dcresnet/activation_3/Relu", "StatefulPartitionedCall/dcresnet/conv1d_4/conv1d/ExpandDims/dim"], "attr": {"Tdim": {"type": "DT_INT32"}, "T": {"type": "DT_FLOAT"}}}, {"name": "StatefulPartitionedCall/dcresnet/conv1d_4/conv1d", "op": "Conv2D", "input": ["StatefulPartitionedCall/dcresnet/conv1d_4/conv1d/ExpandDims", "StatefulPartitionedCall/dcresnet/conv1d_4/conv1d/ExpandDims_1"], "device": "/device:CPU:0", "attr": {"explicit_paddings": {"list": {}}, "T": {"type": "DT_FLOAT"}, "strides": {"list": {"i": ["1", "1", "1", "1"]}}, "use_cudnn_on_gpu": {"b": true}, "padding": {"s": "U0FNRQ=="}, "data_format": {"s": "TkhXQw=="}, "dilations": {"list": {"i": ["1", "1", "1", "1"]}}}}, {"name": "StatefulPartitionedCall/dcresnet/conv1d_4/conv1d/Squeeze", "op": "Squeeze", "input": ["StatefulPartitionedCall/dcresnet/conv1d_4/conv1d"], "attr": {"squeeze_dims": {"list": {"i": ["-3"]}}, "T": {"type": "DT_FLOAT"}}}, {"name": "StatefulPartitionedCall/dcresnet/batch_normalization_5/batchnorm/mul_1", "op": "Mul", "input": ["StatefulPartitionedCall/dcresnet/conv1d_4/conv1d/Squeeze", "StatefulPartitionedCall/dcresnet/batch_normalization_5/batchnorm/mul"], "attr": {"T": {"type": "DT_FLOAT"}}}, {"name": "StatefulPartitionedCall/dcresnet/batch_normalization_5/batchnorm/add_1", "op": "AddV2", "input": ["StatefulPartitionedCall/dcresnet/batch_normalization_5/batchnorm/mul_1", "StatefulPartitionedCall/dcresnet/batch_normalization_5/batchnorm/sub"], "attr": {"T": {"type": "DT_FLOAT"}}}, {"name": "StatefulPartitionedCall/dcresnet/activation_4/Relu", "op": "Relu", "input": ["StatefulPartitionedCall/dcresnet/batch_normalization_5/batchnorm/add_1"], "attr": {"T": {"type": "DT_FLOAT"}}}, {"name": "StatefulPartitionedCall/dcresnet/conv1d_5/conv1d/ExpandDims", "op": "ExpandDims", "input": ["StatefulPartitionedCall/dcresnet/activation_4/Relu", "StatefulPartitionedCall/dcresnet/conv1d_5/conv1d/ExpandDims/dim"], "attr": {"T": {"type": "DT_FLOAT"}, "Tdim": {"type": "DT_INT32"}}}, {"name": "StatefulPartitionedCall/dcresnet/conv1d_5/conv1d", "op": "Conv2D", "input": ["StatefulPartitionedCall/dcresnet/conv1d_5/conv1d/ExpandDims", "StatefulPartitionedCall/dcresnet/conv1d_5/conv1d/ExpandDims_1"], "device": "/device:CPU:0", "attr": {"use_cudnn_on_gpu": {"b": true}, "T": {"type": "DT_FLOAT"}, "explicit_paddings": {"list": {}}, "strides": {"list": {"i": ["1", "1", "1", "1"]}}, "padding": {"s": "U0FNRQ=="}, "dilations": {"list": {"i": ["1", "1", "1", "1"]}}, "data_format": {"s": "TkhXQw=="}}}, {"name": "StatefulPartitionedCall/dcresnet/conv1d_5/conv1d/Squeeze", "op": "Squeeze", "input": ["StatefulPartitionedCall/dcresnet/conv1d_5/conv1d"], "attr": {"squeeze_dims": {"list": {"i": ["-3"]}}, "T": {"type": "DT_FLOAT"}}}, {"name": "StatefulPartitionedCall/dcresnet/add_1/add", "op": "AddV2", "input": ["StatefulPartitionedCall/dcresnet/conv1d_5/conv1d/Squeeze", "StatefulPartitionedCall/dcresnet/add/add"], "attr": {"T": {"type": "DT_FLOAT"}}}, {"name": "StatefulPartitionedCall/dcresnet/batch_normalization_6/batchnorm/mul_1", "op": "Mul", "input": ["StatefulPartitionedCall/dcresnet/add_1/add", "StatefulPartitionedCall/dcresnet/batch_normalization_6/batchnorm/mul"], "attr": {"T": {"type": "DT_FLOAT"}}}, {"name": "StatefulPartitionedCall/dcresnet/batch_normalization_6/batchnorm/add_1", "op": "AddV2", "input": ["StatefulPartitionedCall/dcresnet/batch_normalization_6/batchnorm/mul_1", "StatefulPartitionedCall/dcresnet/batch_normalization_6/batchnorm/sub"], "attr": {"T": {"type": "DT_FLOAT"}}}, {"name": "StatefulPartitionedCall/dcresnet/activation_5/Relu", "op": "Relu", "input": ["StatefulPartitionedCall/dcresnet/batch_normalization_6/batchnorm/add_1"], "attr": {"T": {"type": "DT_FLOAT"}}}, {"name": "StatefulPartitionedCall/dcresnet/conv1d_6/conv1d/ExpandDims", "op": "ExpandDims", "input": ["StatefulPartitionedCall/dcresnet/activation_5/Relu", "StatefulPartitionedCall/dcresnet/conv1d_6/conv1d/ExpandDims/dim"], "attr": {"Tdim": {"type": "DT_INT32"}, "T": {"type": "DT_FLOAT"}}}, {"name": "StatefulPartitionedCall/dcresnet/conv1d_6/conv1d", "op": "Conv2D", "input": ["StatefulPartitionedCall/dcresnet/conv1d_6/conv1d/ExpandDims", "StatefulPartitionedCall/dcresnet/conv1d_6/conv1d/ExpandDims_1"], "device": "/device:CPU:0", "attr": {"explicit_paddings": {"list": {}}, "T": {"type": "DT_FLOAT"}, "use_cudnn_on_gpu": {"b": true}, "dilations": {"list": {"i": ["1", "1", "1", "1"]}}, "strides": {"list": {"i": ["1", "1", "1", "1"]}}, "padding": {"s": "U0FNRQ=="}, "data_format": {"s": "TkhXQw=="}}}, {"name": "StatefulPartitionedCall/dcresnet/conv1d_6/conv1d/Squeeze", "op": "Squeeze", "input": ["StatefulPartitionedCall/dcresnet/conv1d_6/conv1d"], "attr": {"squeeze_dims": {"list": {"i": ["-3"]}}, "T": {"type": "DT_FLOAT"}}}, {"name": "StatefulPartitionedCall/dcresnet/batch_normalization_7/batchnorm/mul_1", "op": "Mul", "input": ["StatefulPartitionedCall/dcresnet/conv1d_6/conv1d/Squeeze", "StatefulPartitionedCall/dcresnet/batch_normalization_7/batchnorm/mul"], "attr": {"T": {"type": "DT_FLOAT"}}}, {"name": "StatefulPartitionedCall/dcresnet/batch_normalization_7/batchnorm/add_1", "op": "AddV2", "input": ["StatefulPartitionedCall/dcresnet/batch_normalization_7/batchnorm/mul_1", "StatefulPartitionedCall/dcresnet/batch_normalization_7/batchnorm/sub"], "attr": {"T": {"type": "DT_FLOAT"}}}, {"name": "StatefulPartitionedCall/dcresnet/activation_6/Relu", "op": "Relu", "input": ["StatefulPartitionedCall/dcresnet/batch_normalization_7/batchnorm/add_1"], "attr": {"T": {"type": "DT_FLOAT"}}}, {"name": "StatefulPartitionedCall/dcresnet/conv1d_7/conv1d/ExpandDims", "op": "ExpandDims", "input": ["StatefulPartitionedCall/dcresnet/activation_6/Relu", "StatefulPartitionedCall/dcresnet/conv1d_7/conv1d/ExpandDims/dim"], "attr": {"Tdim": {"type": "DT_INT32"}, "T": {"type": "DT_FLOAT"}}}, {"name": "StatefulPartitionedCall/dcresnet/conv1d_7/conv1d", "op": "Conv2D", "input": ["StatefulPartitionedCall/dcresnet/conv1d_7/conv1d/ExpandDims", "StatefulPartitionedCall/dcresnet/conv1d_7/conv1d/ExpandDims_1"], "device": "/device:CPU:0", "attr": {"explicit_paddings": {"list": {}}, "strides": {"list": {"i": ["1", "1", "1", "1"]}}, "dilations": {"list": {"i": ["1", "1", "1", "1"]}}, "T": {"type": "DT_FLOAT"}, "use_cudnn_on_gpu": {"b": true}, "padding": {"s": "U0FNRQ=="}, "data_format": {"s": "TkhXQw=="}}}, {"name": "StatefulPartitionedCall/dcresnet/conv1d_7/conv1d/Squeeze", "op": "Squeeze", "input": ["StatefulPartitionedCall/dcresnet/conv1d_7/conv1d"], "attr": {"T": {"type": "DT_FLOAT"}, "squeeze_dims": {"list": {"i": ["-3"]}}}}, {"name": "StatefulPartitionedCall/dcresnet/add_2/add", "op": "AddV2", "input": ["StatefulPartitionedCall/dcresnet/conv1d_7/conv1d/Squeeze", "StatefulPartitionedCall/dcresnet/add_1/add"], "attr": {"T": {"type": "DT_FLOAT"}}}, {"name": "StatefulPartitionedCall/dcresnet/batch_normalization_8/batchnorm/mul_1", "op": "Mul", "input": ["StatefulPartitionedCall/dcresnet/add_2/add", "StatefulPartitionedCall/dcresnet/batch_normalization_8/batchnorm/mul"], "attr": {"T": {"type": "DT_FLOAT"}}}, {"name": "StatefulPartitionedCall/dcresnet/batch_normalization_8/batchnorm/add_1", "op": "AddV2", "input": ["StatefulPartitionedCall/dcresnet/batch_normalization_8/batchnorm/mul_1", "StatefulPartitionedCall/dcresnet/batch_normalization_8/batchnorm/sub"], "attr": {"T": {"type": "DT_FLOAT"}}}, {"name": "StatefulPartitionedCall/dcresnet/activation_7/Relu", "op": "Relu", "input": ["StatefulPartitionedCall/dcresnet/batch_normalization_8/batchnorm/add_1"], "attr": {"T": {"type": "DT_FLOAT"}}}, {"name": "StatefulPartitionedCall/dcresnet/conv1d_8/conv1d/ExpandDims", "op": "ExpandDims", "input": ["StatefulPartitionedCall/dcresnet/activation_7/Relu", "StatefulPartitionedCall/dcresnet/conv1d_8/conv1d/ExpandDims/dim"], "attr": {"Tdim": {"type": "DT_INT32"}, "T": {"type": "DT_FLOAT"}}}, {"name": "StatefulPartitionedCall/dcresnet/conv1d_10/conv1d/ExpandDims", "op": "ExpandDims", "input": ["StatefulPartitionedCall/dcresnet/activation_7/Relu", "StatefulPartitionedCall/dcresnet/conv1d_10/conv1d/ExpandDims/dim"], "attr": {"Tdim": {"type": "DT_INT32"}, "T": {"type": "DT_FLOAT"}}}, {"name": "StatefulPartitionedCall/dcresnet/conv1d_8/conv1d", "op": "Conv2D", "input": ["StatefulPartitionedCall/dcresnet/conv1d_8/conv1d/ExpandDims", "StatefulPartitionedCall/dcresnet/conv1d_8/conv1d/ExpandDims_1"], "device": "/device:CPU:0", "attr": {"T": {"type": "DT_FLOAT"}, "use_cudnn_on_gpu": {"b": true}, "data_format": {"s": "TkhXQw=="}, "strides": {"list": {"i": ["1", "1", "1", "1"]}}, "explicit_paddings": {"list": {}}, "padding": {"s": "U0FNRQ=="}, "dilations": {"list": {"i": ["1", "1", "1", "1"]}}}}, {"name": "StatefulPartitionedCall/dcresnet/conv1d_10/conv1d", "op": "Conv2D", "input": ["StatefulPartitionedCall/dcresnet/conv1d_10/conv1d/ExpandDims", "StatefulPartitionedCall/dcresnet/conv1d_10/conv1d/ExpandDims_1"], "device": "/device:CPU:0", "attr": {"strides": {"list": {"i": ["1", "1", "2", "1"]}}, "T": {"type": "DT_FLOAT"}, "explicit_paddings": {"list": {}}, "padding": {"s": "U0FNRQ=="}, "dilations": {"list": {"i": ["1", "1", "1", "1"]}}, "use_cudnn_on_gpu": {"b": true}, "data_format": {"s": "TkhXQw=="}}}, {"name": "StatefulPartitionedCall/dcresnet/conv1d_8/conv1d/Squeeze", "op": "Squeeze", "input": ["StatefulPartitionedCall/dcresnet/conv1d_8/conv1d"], "attr": {"squeeze_dims": {"list": {"i": ["-3"]}}, "T": {"type": "DT_FLOAT"}}}, {"name": "StatefulPartitionedCall/dcresnet/conv1d_10/conv1d/Squeeze", "op": "Squeeze", "input": ["StatefulPartitionedCall/dcresnet/conv1d_10/conv1d"], "attr": {"squeeze_dims": {"list": {"i": ["-3"]}}, "T": {"type": "DT_FLOAT"}}}, {"name": "StatefulPartitionedCall/dcresnet/batch_normalization_9/batchnorm/mul_1", "op": "Mul", "input": ["StatefulPartitionedCall/dcresnet/conv1d_8/conv1d/Squeeze", "StatefulPartitionedCall/dcresnet/batch_normalization_9/batchnorm/mul"], "attr": {"T": {"type": "DT_FLOAT"}}}, {"name": "StatefulPartitionedCall/dcresnet/batch_normalization_9/batchnorm/add_1", "op": "AddV2", "input": ["StatefulPartitionedCall/dcresnet/batch_normalization_9/batchnorm/mul_1", "StatefulPartitionedCall/dcresnet/batch_normalization_9/batchnorm/sub"], "attr": {"T": {"type": "DT_FLOAT"}}}, {"name": "StatefulPartitionedCall/dcresnet/activation_8/Relu", "op": "Relu", "input": ["StatefulPartitionedCall/dcresnet/batch_normalization_9/batchnorm/add_1"], "attr": {"T": {"type": "DT_FLOAT"}}}, {"name": "StatefulPartitionedCall/dcresnet/conv1d_9/conv1d/ExpandDims", "op": "ExpandDims", "input": ["StatefulPartitionedCall/dcresnet/activation_8/Relu", "StatefulPartitionedCall/dcresnet/conv1d_9/conv1d/ExpandDims/dim"], "attr": {"T": {"type": "DT_FLOAT"}, "Tdim": {"type": "DT_INT32"}}}, {"name": "StatefulPartitionedCall/dcresnet/conv1d_9/conv1d", "op": "Conv2D", "input": ["StatefulPartitionedCall/dcresnet/conv1d_9/conv1d/ExpandDims", "StatefulPartitionedCall/dcresnet/conv1d_9/conv1d/ExpandDims_1"], "device": "/device:CPU:0", "attr": {"strides": {"list": {"i": ["1", "1", "2", "1"]}}, "dilations": {"list": {"i": ["1", "1", "1", "1"]}}, "padding": {"s": "U0FNRQ=="}, "use_cudnn_on_gpu": {"b": true}, "T": {"type": "DT_FLOAT"}, "data_format": {"s": "TkhXQw=="}, "explicit_paddings": {"list": {}}}}, {"name": "StatefulPartitionedCall/dcresnet/conv1d_9/conv1d/Squeeze", "op": "Squeeze", "input": ["StatefulPartitionedCall/dcresnet/conv1d_9/conv1d"], "attr": {"T": {"type": "DT_FLOAT"}, "squeeze_dims": {"list": {"i": ["-3"]}}}}, {"name": "StatefulPartitionedCall/dcresnet/add_3/add", "op": "AddV2", "input": ["StatefulPartitionedCall/dcresnet/conv1d_9/conv1d/Squeeze", "StatefulPartitionedCall/dcresnet/conv1d_10/conv1d/Squeeze"], "attr": {"T": {"type": "DT_FLOAT"}}}, {"name": "StatefulPartitionedCall/dcresnet/batch_normalization_10/batchnorm/mul_1", "op": "Mul", "input": ["StatefulPartitionedCall/dcresnet/add_3/add", "StatefulPartitionedCall/dcresnet/batch_normalization_10/batchnorm/mul"], "attr": {"T": {"type": "DT_FLOAT"}}}, {"name": "StatefulPartitionedCall/dcresnet/batch_normalization_10/batchnorm/add_1", "op": "AddV2", "input": ["StatefulPartitionedCall/dcresnet/batch_normalization_10/batchnorm/mul_1", "StatefulPartitionedCall/dcresnet/batch_normalization_10/batchnorm/sub"], "attr": {"T": {"type": "DT_FLOAT"}}}, {"name": "StatefulPartitionedCall/dcresnet/activation_9/Relu", "op": "Relu", "input": ["StatefulPartitionedCall/dcresnet/batch_normalization_10/batchnorm/add_1"], "attr": {"T": {"type": "DT_FLOAT"}}}, {"name": "StatefulPartitionedCall/dcresnet/conv1d_11/conv1d/ExpandDims", "op": "ExpandDims", "input": ["StatefulPartitionedCall/dcresnet/activation_9/Relu", "StatefulPartitionedCall/dcresnet/conv1d_11/conv1d/ExpandDims/dim"], "attr": {"Tdim": {"type": "DT_INT32"}, "T": {"type": "DT_FLOAT"}}}, {"name": "StatefulPartitionedCall/dcresnet/conv1d_11/conv1d", "op": "Conv2D", "input": ["StatefulPartitionedCall/dcresnet/conv1d_11/conv1d/ExpandDims", "StatefulPartitionedCall/dcresnet/conv1d_11/conv1d/ExpandDims_1"], "device": "/device:CPU:0", "attr": {"padding": {"s": "U0FNRQ=="}, "dilations": {"list": {"i": ["1", "1", "1", "1"]}}, "data_format": {"s": "TkhXQw=="}, "use_cudnn_on_gpu": {"b": true}, "explicit_paddings": {"list": {}}, "T": {"type": "DT_FLOAT"}, "strides": {"list": {"i": ["1", "1", "1", "1"]}}}}, {"name": "StatefulPartitionedCall/dcresnet/conv1d_11/conv1d/Squeeze", "op": "Squeeze", "input": ["StatefulPartitionedCall/dcresnet/conv1d_11/conv1d"], "attr": {"T": {"type": "DT_FLOAT"}, "squeeze_dims": {"list": {"i": ["-3"]}}}}, {"name": "StatefulPartitionedCall/dcresnet/batch_normalization_11/batchnorm/mul_1", "op": "Mul", "input": ["StatefulPartitionedCall/dcresnet/conv1d_11/conv1d/Squeeze", "StatefulPartitionedCall/dcresnet/batch_normalization_11/batchnorm/mul"], "attr": {"T": {"type": "DT_FLOAT"}}}, {"name": "StatefulPartitionedCall/dcresnet/batch_normalization_11/batchnorm/add_1", "op": "AddV2", "input": ["StatefulPartitionedCall/dcresnet/batch_normalization_11/batchnorm/mul_1", "StatefulPartitionedCall/dcresnet/batch_normalization_11/batchnorm/sub"], "attr": {"T": {"type": "DT_FLOAT"}}}, {"name": "StatefulPartitionedCall/dcresnet/activation_10/Relu", "op": "Relu", "input": ["StatefulPartitionedCall/dcresnet/batch_normalization_11/batchnorm/add_1"], "attr": {"T": {"type": "DT_FLOAT"}}}, {"name": "StatefulPartitionedCall/dcresnet/conv1d_12/conv1d/ExpandDims", "op": "ExpandDims", "input": ["StatefulPartitionedCall/dcresnet/activation_10/Relu", "StatefulPartitionedCall/dcresnet/conv1d_12/conv1d/ExpandDims/dim"], "attr": {"Tdim": {"type": "DT_INT32"}, "T": {"type": "DT_FLOAT"}}}, {"name": "StatefulPartitionedCall/dcresnet/conv1d_12/conv1d", "op": "Conv2D", "input": ["StatefulPartitionedCall/dcresnet/conv1d_12/conv1d/ExpandDims", "StatefulPartitionedCall/dcresnet/conv1d_12/conv1d/ExpandDims_1"], "device": "/device:CPU:0", "attr": {"T": {"type": "DT_FLOAT"}, "padding": {"s": "U0FNRQ=="}, "data_format": {"s": "TkhXQw=="}, "use_cudnn_on_gpu": {"b": true}, "explicit_paddings": {"list": {}}, "strides": {"list": {"i": ["1", "1", "1", "1"]}}, "dilations": {"list": {"i": ["1", "1", "1", "1"]}}}}, {"name": "StatefulPartitionedCall/dcresnet/conv1d_12/conv1d/Squeeze", "op": "Squeeze", "input": ["StatefulPartitionedCall/dcresnet/conv1d_12/conv1d"], "attr": {"squeeze_dims": {"list": {"i": ["-3"]}}, "T": {"type": "DT_FLOAT"}}}, {"name": "StatefulPartitionedCall/dcresnet/add_4/add", "op": "AddV2", "input": ["StatefulPartitionedCall/dcresnet/conv1d_12/conv1d/Squeeze", "StatefulPartitionedCall/dcresnet/add_3/add"], "attr": {"T": {"type": "DT_FLOAT"}}}, {"name": "StatefulPartitionedCall/dcresnet/batch_normalization_12/batchnorm/mul_1", "op": "Mul", "input": ["StatefulPartitionedCall/dcresnet/add_4/add", "StatefulPartitionedCall/dcresnet/batch_normalization_12/batchnorm/mul"], "attr": {"T": {"type": "DT_FLOAT"}}}, {"name": "StatefulPartitionedCall/dcresnet/batch_normalization_12/batchnorm/add_1", "op": "AddV2", "input": ["StatefulPartitionedCall/dcresnet/batch_normalization_12/batchnorm/mul_1", "StatefulPartitionedCall/dcresnet/batch_normalization_12/batchnorm/sub"], "attr": {"T": {"type": "DT_FLOAT"}}}, {"name": "StatefulPartitionedCall/dcresnet/activation_11/Relu", "op": "Relu", "input": ["StatefulPartitionedCall/dcresnet/batch_normalization_12/batchnorm/add_1"], "attr": {"T": {"type": "DT_FLOAT"}}}, {"name": "StatefulPartitionedCall/dcresnet/conv1d_13/conv1d/ExpandDims", "op": "ExpandDims", "input": ["StatefulPartitionedCall/dcresnet/activation_11/Relu", "StatefulPartitionedCall/dcresnet/conv1d_13/conv1d/ExpandDims/dim"], "attr": {"Tdim": {"type": "DT_INT32"}, "T": {"type": "DT_FLOAT"}}}, {"name": "StatefulPartitionedCall/dcresnet/conv1d_13/conv1d", "op": "Conv2D", "input": ["StatefulPartitionedCall/dcresnet/conv1d_13/conv1d/ExpandDims", "StatefulPartitionedCall/dcresnet/conv1d_13/conv1d/ExpandDims_1"], "device": "/device:CPU:0", "attr": {"explicit_paddings": {"list": {}}, "use_cudnn_on_gpu": {"b": true}, "strides": {"list": {"i": ["1", "1", "1", "1"]}}, "padding": {"s": "U0FNRQ=="}, "data_format": {"s": "TkhXQw=="}, "T": {"type": "DT_FLOAT"}, "dilations": {"list": {"i": ["1", "1", "1", "1"]}}}}, {"name": "StatefulPartitionedCall/dcresnet/conv1d_13/conv1d/Squeeze", "op": "Squeeze", "input": ["StatefulPartitionedCall/dcresnet/conv1d_13/conv1d"], "attr": {"T": {"type": "DT_FLOAT"}, "squeeze_dims": {"list": {"i": ["-3"]}}}}, {"name": "StatefulPartitionedCall/dcresnet/batch_normalization_13/batchnorm/mul_1", "op": "Mul", "input": ["StatefulPartitionedCall/dcresnet/conv1d_13/conv1d/Squeeze", "StatefulPartitionedCall/dcresnet/batch_normalization_13/batchnorm/mul"], "attr": {"T": {"type": "DT_FLOAT"}}}, {"name": "StatefulPartitionedCall/dcresnet/batch_normalization_13/batchnorm/add_1", "op": "AddV2", "input": ["StatefulPartitionedCall/dcresnet/batch_normalization_13/batchnorm/mul_1", "StatefulPartitionedCall/dcresnet/batch_normalization_13/batchnorm/sub"], "attr": {"T": {"type": "DT_FLOAT"}}}, {"name": "StatefulPartitionedCall/dcresnet/activation_12/Relu", "op": "Relu", "input": ["StatefulPartitionedCall/dcresnet/batch_normalization_13/batchnorm/add_1"], "attr": {"T": {"type": "DT_FLOAT"}}}, {"name": "StatefulPartitionedCall/dcresnet/conv1d_14/conv1d/ExpandDims", "op": "ExpandDims", "input": ["StatefulPartitionedCall/dcresnet/activation_12/Relu", "StatefulPartitionedCall/dcresnet/conv1d_14/conv1d/ExpandDims/dim"], "attr": {"Tdim": {"type": "DT_INT32"}, "T": {"type": "DT_FLOAT"}}}, {"name": "StatefulPartitionedCall/dcresnet/conv1d_14/conv1d", "op": "Conv2D", "input": ["StatefulPartitionedCall/dcresnet/conv1d_14/conv1d/ExpandDims", "StatefulPartitionedCall/dcresnet/conv1d_14/conv1d/ExpandDims_1"], "device": "/device:CPU:0", "attr": {"explicit_paddings": {"list": {}}, "padding": {"s": "U0FNRQ=="}, "use_cudnn_on_gpu": {"b": true}, "T": {"type": "DT_FLOAT"}, "data_format": {"s": "TkhXQw=="}, "dilations": {"list": {"i": ["1", "1", "1", "1"]}}, "strides": {"list": {"i": ["1", "1", "1", "1"]}}}}, {"name": "StatefulPartitionedCall/dcresnet/conv1d_14/conv1d/Squeeze", "op": "Squeeze", "input": ["StatefulPartitionedCall/dcresnet/conv1d_14/conv1d"], "attr": {"squeeze_dims": {"list": {"i": ["-3"]}}, "T": {"type": "DT_FLOAT"}}}, {"name": "StatefulPartitionedCall/dcresnet/add_5/add", "op": "AddV2", "input": ["StatefulPartitionedCall/dcresnet/conv1d_14/conv1d/Squeeze", "StatefulPartitionedCall/dcresnet/add_4/add"], "attr": {"T": {"type": "DT_FLOAT"}}}, {"name": "StatefulPartitionedCall/dcresnet/batch_normalization_14/batchnorm/mul_1", "op": "Mul", "input": ["StatefulPartitionedCall/dcresnet/add_5/add", "StatefulPartitionedCall/dcresnet/batch_normalization_14/batchnorm/mul"], "attr": {"T": {"type": "DT_FLOAT"}}}, {"name": "StatefulPartitionedCall/dcresnet/batch_normalization_14/batchnorm/add_1", "op": "AddV2", "input": ["StatefulPartitionedCall/dcresnet/batch_normalization_14/batchnorm/mul_1", "StatefulPartitionedCall/dcresnet/batch_normalization_14/batchnorm/sub"], "attr": {"T": {"type": "DT_FLOAT"}}}, {"name": "StatefulPartitionedCall/dcresnet/activation_13/Relu", "op": "Relu", "input": ["StatefulPartitionedCall/dcresnet/batch_normalization_14/batchnorm/add_1"], "attr": {"T": {"type": "DT_FLOAT"}}}, {"name": "StatefulPartitionedCall/dcresnet/conv1d_15/conv1d/ExpandDims", "op": "ExpandDims", "input": ["StatefulPartitionedCall/dcresnet/activation_13/Relu", "StatefulPartitionedCall/dcresnet/conv1d_15/conv1d/ExpandDims/dim"], "attr": {"Tdim": {"type": "DT_INT32"}, "T": {"type": "DT_FLOAT"}}}, {"name": "StatefulPartitionedCall/dcresnet/conv1d_15/conv1d", "op": "Conv2D", "input": ["StatefulPartitionedCall/dcresnet/conv1d_15/conv1d/ExpandDims", "StatefulPartitionedCall/dcresnet/conv1d_15/conv1d/ExpandDims_1"], "device": "/device:CPU:0", "attr": {"use_cudnn_on_gpu": {"b": true}, "dilations": {"list": {"i": ["1", "1", "1", "1"]}}, "data_format": {"s": "TkhXQw=="}, "T": {"type": "DT_FLOAT"}, "strides": {"list": {"i": ["1", "1", "1", "1"]}}, "explicit_paddings": {"list": {}}, "padding": {"s": "U0FNRQ=="}}}, {"name": "StatefulPartitionedCall/dcresnet/conv1d_15/conv1d/Squeeze", "op": "Squeeze", "input": ["StatefulPartitionedCall/dcresnet/conv1d_15/conv1d"], "attr": {"squeeze_dims": {"list": {"i": ["-3"]}}, "T": {"type": "DT_FLOAT"}}}, {"name": "StatefulPartitionedCall/dcresnet/batch_normalization_15/batchnorm/mul_1", "op": "Mul", "input": ["StatefulPartitionedCall/dcresnet/conv1d_15/conv1d/Squeeze", "StatefulPartitionedCall/dcresnet/batch_normalization_15/batchnorm/mul"], "attr": {"T": {"type": "DT_FLOAT"}}}, {"name": "StatefulPartitionedCall/dcresnet/batch_normalization_15/batchnorm/add_1", "op": "AddV2", "input": ["StatefulPartitionedCall/dcresnet/batch_normalization_15/batchnorm/mul_1", "StatefulPartitionedCall/dcresnet/batch_normalization_15/batchnorm/sub"], "attr": {"T": {"type": "DT_FLOAT"}}}, {"name": "StatefulPartitionedCall/dcresnet/activation_14/Relu", "op": "Relu", "input": ["StatefulPartitionedCall/dcresnet/batch_normalization_15/batchnorm/add_1"], "attr": {"T": {"type": "DT_FLOAT"}}}, {"name": "StatefulPartitionedCall/dcresnet/conv1d_16/conv1d/ExpandDims", "op": "ExpandDims", "input": ["StatefulPartitionedCall/dcresnet/activation_14/Relu", "StatefulPartitionedCall/dcresnet/conv1d_16/conv1d/ExpandDims/dim"], "attr": {"T": {"type": "DT_FLOAT"}, "Tdim": {"type": "DT_INT32"}}}, {"name": "StatefulPartitionedCall/dcresnet/conv1d_16/conv1d", "op": "Conv2D", "input": ["StatefulPartitionedCall/dcresnet/conv1d_16/conv1d/ExpandDims", "StatefulPartitionedCall/dcresnet/conv1d_16/conv1d/ExpandDims_1"], "device": "/device:CPU:0", "attr": {"strides": {"list": {"i": ["1", "1", "1", "1"]}}, "T": {"type": "DT_FLOAT"}, "use_cudnn_on_gpu": {"b": true}, "data_format": {"s": "TkhXQw=="}, "explicit_paddings": {"list": {}}, "padding": {"s": "U0FNRQ=="}, "dilations": {"list": {"i": ["1", "1", "1", "1"]}}}}, {"name": "StatefulPartitionedCall/dcresnet/conv1d_16/conv1d/Squeeze", "op": "Squeeze", "input": ["StatefulPartitionedCall/dcresnet/conv1d_16/conv1d"], "attr": {"squeeze_dims": {"list": {"i": ["-3"]}}, "T": {"type": "DT_FLOAT"}}}, {"name": "StatefulPartitionedCall/dcresnet/add_6/add", "op": "AddV2", "input": ["StatefulPartitionedCall/dcresnet/conv1d_16/conv1d/Squeeze", "StatefulPartitionedCall/dcresnet/add_5/add"], "attr": {"T": {"type": "DT_FLOAT"}}}, {"name": "StatefulPartitionedCall/dcresnet/batch_normalization_16/batchnorm/mul_1", "op": "Mul", "input": ["StatefulPartitionedCall/dcresnet/add_6/add", "StatefulPartitionedCall/dcresnet/batch_normalization_16/batchnorm/mul"], "attr": {"T": {"type": "DT_FLOAT"}}}, {"name": "StatefulPartitionedCall/dcresnet/batch_normalization_16/batchnorm/add_1", "op": "AddV2", "input": ["StatefulPartitionedCall/dcresnet/batch_normalization_16/batchnorm/mul_1", "StatefulPartitionedCall/dcresnet/batch_normalization_16/batchnorm/sub"], "attr": {"T": {"type": "DT_FLOAT"}}}, {"name": "StatefulPartitionedCall/dcresnet/activation_15/Relu", "op": "Relu", "input": ["StatefulPartitionedCall/dcresnet/batch_normalization_16/batchnorm/add_1"], "attr": {"T": {"type": "DT_FLOAT"}}}, {"name": "StatefulPartitionedCall/dcresnet/conv1d_17/conv1d/ExpandDims", "op": "ExpandDims", "input": ["StatefulPartitionedCall/dcresnet/activation_15/Relu", "StatefulPartitionedCall/dcresnet/conv1d_17/conv1d/ExpandDims/dim"], "attr": {"Tdim": {"type": "DT_INT32"}, "T": {"type": "DT_FLOAT"}}}, {"name": "StatefulPartitionedCall/dcresnet/conv1d_19/conv1d/ExpandDims", "op": "ExpandDims", "input": ["StatefulPartitionedCall/dcresnet/activation_15/Relu", "StatefulPartitionedCall/dcresnet/conv1d_19/conv1d/ExpandDims/dim"], "attr": {"Tdim": {"type": "DT_INT32"}, "T": {"type": "DT_FLOAT"}}}, {"name": "StatefulPartitionedCall/dcresnet/conv1d_17/conv1d", "op": "Conv2D", "input": ["StatefulPartitionedCall/dcresnet/conv1d_17/conv1d/ExpandDims", "StatefulPartitionedCall/dcresnet/conv1d_17/conv1d/ExpandDims_1"], "device": "/device:CPU:0", "attr": {"dilations": {"list": {"i": ["1", "1", "1", "1"]}}, "explicit_paddings": {"list": {}}, "data_format": {"s": "TkhXQw=="}, "T": {"type": "DT_FLOAT"}, "use_cudnn_on_gpu": {"b": true}, "strides": {"list": {"i": ["1", "1", "1", "1"]}}, "padding": {"s": "U0FNRQ=="}}}, {"name": "StatefulPartitionedCall/dcresnet/conv1d_19/conv1d", "op": "Conv2D", "input": ["StatefulPartitionedCall/dcresnet/conv1d_19/conv1d/ExpandDims", "StatefulPartitionedCall/dcresnet/conv1d_19/conv1d/ExpandDims_1"], "device": "/device:CPU:0", "attr": {"explicit_paddings": {"list": {}}, "dilations": {"list": {"i": ["1", "1", "1", "1"]}}, "use_cudnn_on_gpu": {"b": true}, "data_format": {"s": "TkhXQw=="}, "padding": {"s": "U0FNRQ=="}, "strides": {"list": {"i": ["1", "1", "2", "1"]}}, "T": {"type": "DT_FLOAT"}}}, {"name": "StatefulPartitionedCall/dcresnet/conv1d_17/conv1d/Squeeze", "op": "Squeeze", "input": ["StatefulPartitionedCall/dcresnet/conv1d_17/conv1d"], "attr": {"T": {"type": "DT_FLOAT"}, "squeeze_dims": {"list": {"i": ["-3"]}}}}, {"name": "StatefulPartitionedCall/dcresnet/conv1d_19/conv1d/Squeeze", "op": "Squeeze", "input": ["StatefulPartitionedCall/dcresnet/conv1d_19/conv1d"], "attr": {"squeeze_dims": {"list": {"i": ["-3"]}}, "T": {"type": "DT_FLOAT"}}}, {"name": "StatefulPartitionedCall/dcresnet/batch_normalization_17/batchnorm/mul_1", "op": "Mul", "input": ["StatefulPartitionedCall/dcresnet/conv1d_17/conv1d/Squeeze", "StatefulPartitionedCall/dcresnet/batch_normalization_17/batchnorm/mul"], "attr": {"T": {"type": "DT_FLOAT"}}}, {"name": "StatefulPartitionedCall/dcresnet/batch_normalization_17/batchnorm/add_1", "op": "AddV2", "input": ["StatefulPartitionedCall/dcresnet/batch_normalization_17/batchnorm/mul_1", "StatefulPartitionedCall/dcresnet/batch_normalization_17/batchnorm/sub"], "attr": {"T": {"type": "DT_FLOAT"}}}, {"name": "StatefulPartitionedCall/dcresnet/activation_16/Relu", "op": "Relu", "input": ["StatefulPartitionedCall/dcresnet/batch_normalization_17/batchnorm/add_1"], "attr": {"T": {"type": "DT_FLOAT"}}}, {"name": "StatefulPartitionedCall/dcresnet/conv1d_18/conv1d/ExpandDims", "op": "ExpandDims", "input": ["StatefulPartitionedCall/dcresnet/activation_16/Relu", "StatefulPartitionedCall/dcresnet/conv1d_18/conv1d/ExpandDims/dim"], "attr": {"T": {"type": "DT_FLOAT"}, "Tdim": {"type": "DT_INT32"}}}, {"name": "StatefulPartitionedCall/dcresnet/conv1d_18/conv1d", "op": "Conv2D", "input": ["StatefulPartitionedCall/dcresnet/conv1d_18/conv1d/ExpandDims", "StatefulPartitionedCall/dcresnet/conv1d_18/conv1d/ExpandDims_1"], "device": "/device:CPU:0", "attr": {"T": {"type": "DT_FLOAT"}, "explicit_paddings": {"list": {}}, "dilations": {"list": {"i": ["1", "1", "1", "1"]}}, "use_cudnn_on_gpu": {"b": true}, "padding": {"s": "U0FNRQ=="}, "strides": {"list": {"i": ["1", "1", "2", "1"]}}, "data_format": {"s": "TkhXQw=="}}}, {"name": "StatefulPartitionedCall/dcresnet/conv1d_18/conv1d/Squeeze", "op": "Squeeze", "input": ["StatefulPartitionedCall/dcresnet/conv1d_18/conv1d"], "attr": {"squeeze_dims": {"list": {"i": ["-3"]}}, "T": {"type": "DT_FLOAT"}}}, {"name": "StatefulPartitionedCall/dcresnet/add_7/add", "op": "AddV2", "input": ["StatefulPartitionedCall/dcresnet/conv1d_18/conv1d/Squeeze", "StatefulPartitionedCall/dcresnet/conv1d_19/conv1d/Squeeze"], "attr": {"T": {"type": "DT_FLOAT"}}}, {"name": "StatefulPartitionedCall/dcresnet/batch_normalization_18/batchnorm/mul_1", "op": "Mul", "input": ["StatefulPartitionedCall/dcresnet/add_7/add", "StatefulPartitionedCall/dcresnet/batch_normalization_18/batchnorm/mul"], "attr": {"T": {"type": "DT_FLOAT"}}}, {"name": "StatefulPartitionedCall/dcresnet/batch_normalization_18/batchnorm/add_1", "op": "AddV2", "input": ["StatefulPartitionedCall/dcresnet/batch_normalization_18/batchnorm/mul_1", "StatefulPartitionedCall/dcresnet/batch_normalization_18/batchnorm/sub"], "attr": {"T": {"type": "DT_FLOAT"}}}, {"name": "StatefulPartitionedCall/dcresnet/activation_17/Relu", "op": "Relu", "input": ["StatefulPartitionedCall/dcresnet/batch_normalization_18/batchnorm/add_1"], "attr": {"T": {"type": "DT_FLOAT"}}}, {"name": "StatefulPartitionedCall/dcresnet/conv1d_20/conv1d/ExpandDims", "op": "ExpandDims", "input": ["StatefulPartitionedCall/dcresnet/activation_17/Relu", "StatefulPartitionedCall/dcresnet/conv1d_20/conv1d/ExpandDims/dim"], "attr": {"T": {"type": "DT_FLOAT"}, "Tdim": {"type": "DT_INT32"}}}, {"name": "StatefulPartitionedCall/dcresnet/conv1d_20/conv1d", "op": "Conv2D", "input": ["StatefulPartitionedCall/dcresnet/conv1d_20/conv1d/ExpandDims", "StatefulPartitionedCall/dcresnet/conv1d_20/conv1d/ExpandDims_1"], "device": "/device:CPU:0", "attr": {"dilations": {"list": {"i": ["1", "1", "1", "1"]}}, "strides": {"list": {"i": ["1", "1", "1", "1"]}}, "padding": {"s": "U0FNRQ=="}, "data_format": {"s": "TkhXQw=="}, "explicit_paddings": {"list": {}}, "T": {"type": "DT_FLOAT"}, "use_cudnn_on_gpu": {"b": true}}}, {"name": "StatefulPartitionedCall/dcresnet/conv1d_20/conv1d/Squeeze", "op": "Squeeze", "input": ["StatefulPartitionedCall/dcresnet/conv1d_20/conv1d"], "attr": {"squeeze_dims": {"list": {"i": ["-3"]}}, "T": {"type": "DT_FLOAT"}}}, {"name": "StatefulPartitionedCall/dcresnet/batch_normalization_19/batchnorm/mul_1", "op": "Mul", "input": ["StatefulPartitionedCall/dcresnet/conv1d_20/conv1d/Squeeze", "StatefulPartitionedCall/dcresnet/batch_normalization_19/batchnorm/mul"], "attr": {"T": {"type": "DT_FLOAT"}}}, {"name": "StatefulPartitionedCall/dcresnet/batch_normalization_19/batchnorm/add_1", "op": "AddV2", "input": ["StatefulPartitionedCall/dcresnet/batch_normalization_19/batchnorm/mul_1", "StatefulPartitionedCall/dcresnet/batch_normalization_19/batchnorm/sub"], "attr": {"T": {"type": "DT_FLOAT"}}}, {"name": "StatefulPartitionedCall/dcresnet/activation_18/Relu", "op": "Relu", "input": ["StatefulPartitionedCall/dcresnet/batch_normalization_19/batchnorm/add_1"], "attr": {"T": {"type": "DT_FLOAT"}}}, {"name": "StatefulPartitionedCall/dcresnet/conv1d_21/conv1d/ExpandDims", "op": "ExpandDims", "input": ["StatefulPartitionedCall/dcresnet/activation_18/Relu", "StatefulPartitionedCall/dcresnet/conv1d_21/conv1d/ExpandDims/dim"], "attr": {"Tdim": {"type": "DT_INT32"}, "T": {"type": "DT_FLOAT"}}}, {"name": "StatefulPartitionedCall/dcresnet/conv1d_21/conv1d", "op": "Conv2D", "input": ["StatefulPartitionedCall/dcresnet/conv1d_21/conv1d/ExpandDims", "StatefulPartitionedCall/dcresnet/conv1d_21/conv1d/ExpandDims_1"], "device": "/device:CPU:0", "attr": {"strides": {"list": {"i": ["1", "1", "1", "1"]}}, "use_cudnn_on_gpu": {"b": true}, "explicit_paddings": {"list": {}}, "T": {"type": "DT_FLOAT"}, "dilations": {"list": {"i": ["1", "1", "1", "1"]}}, "padding": {"s": "U0FNRQ=="}, "data_format": {"s": "TkhXQw=="}}}, {"name": "StatefulPartitionedCall/dcresnet/conv1d_21/conv1d/Squeeze", "op": "Squeeze", "input": ["StatefulPartitionedCall/dcresnet/conv1d_21/conv1d"], "attr": {"T": {"type": "DT_FLOAT"}, "squeeze_dims": {"list": {"i": ["-3"]}}}}, {"name": "StatefulPartitionedCall/dcresnet/add_8/add", "op": "AddV2", "input": ["StatefulPartitionedCall/dcresnet/conv1d_21/conv1d/Squeeze", "StatefulPartitionedCall/dcresnet/add_7/add"], "attr": {"T": {"type": "DT_FLOAT"}}}, {"name": "StatefulPartitionedCall/dcresnet/batch_normalization_20/batchnorm/mul_1", "op": "Mul", "input": ["StatefulPartitionedCall/dcresnet/add_8/add", "StatefulPartitionedCall/dcresnet/batch_normalization_20/batchnorm/mul"], "attr": {"T": {"type": "DT_FLOAT"}}}, {"name": "StatefulPartitionedCall/dcresnet/batch_normalization_20/batchnorm/add_1", "op": "AddV2", "input": ["StatefulPartitionedCall/dcresnet/batch_normalization_20/batchnorm/mul_1", "StatefulPartitionedCall/dcresnet/batch_normalization_20/batchnorm/sub"], "attr": {"T": {"type": "DT_FLOAT"}}}, {"name": "StatefulPartitionedCall/dcresnet/activation_19/Relu", "op": "Relu", "input": ["StatefulPartitionedCall/dcresnet/batch_normalization_20/batchnorm/add_1"], "attr": {"T": {"type": "DT_FLOAT"}}}, {"name": "StatefulPartitionedCall/dcresnet/conv1d_22/conv1d/ExpandDims", "op": "ExpandDims", "input": ["StatefulPartitionedCall/dcresnet/activation_19/Relu", "StatefulPartitionedCall/dcresnet/conv1d_22/conv1d/ExpandDims/dim"], "attr": {"Tdim": {"type": "DT_INT32"}, "T": {"type": "DT_FLOAT"}}}, {"name": "StatefulPartitionedCall/dcresnet/conv1d_22/conv1d", "op": "Conv2D", "input": ["StatefulPartitionedCall/dcresnet/conv1d_22/conv1d/ExpandDims", "StatefulPartitionedCall/dcresnet/conv1d_22/conv1d/ExpandDims_1"], "device": "/device:CPU:0", "attr": {"strides": {"list": {"i": ["1", "1", "1", "1"]}}, "explicit_paddings": {"list": {}}, "use_cudnn_on_gpu": {"b": true}, "data_format": {"s": "TkhXQw=="}, "T": {"type": "DT_FLOAT"}, "padding": {"s": "U0FNRQ=="}, "dilations": {"list": {"i": ["1", "1", "1", "1"]}}}}, {"name": "StatefulPartitionedCall/dcresnet/conv1d_22/conv1d/Squeeze", "op": "Squeeze", "input": ["StatefulPartitionedCall/dcresnet/conv1d_22/conv1d"], "attr": {"T": {"type": "DT_FLOAT"}, "squeeze_dims": {"list": {"i": ["-3"]}}}}, {"name": "StatefulPartitionedCall/dcresnet/batch_normalization_21/batchnorm/mul_1", "op": "Mul", "input": ["StatefulPartitionedCall/dcresnet/conv1d_22/conv1d/Squeeze", "StatefulPartitionedCall/dcresnet/batch_normalization_21/batchnorm/mul"], "attr": {"T": {"type": "DT_FLOAT"}}}, {"name": "StatefulPartitionedCall/dcresnet/batch_normalization_21/batchnorm/add_1", "op": "AddV2", "input": ["StatefulPartitionedCall/dcresnet/batch_normalization_21/batchnorm/mul_1", "StatefulPartitionedCall/dcresnet/batch_normalization_21/batchnorm/sub"], "attr": {"T": {"type": "DT_FLOAT"}}}, {"name": "StatefulPartitionedCall/dcresnet/activation_20/Relu", "op": "Relu", "input": ["StatefulPartitionedCall/dcresnet/batch_normalization_21/batchnorm/add_1"], "attr": {"T": {"type": "DT_FLOAT"}}}, {"name": "StatefulPartitionedCall/dcresnet/conv1d_23/conv1d/ExpandDims", "op": "ExpandDims", "input": ["StatefulPartitionedCall/dcresnet/activation_20/Relu", "StatefulPartitionedCall/dcresnet/conv1d_23/conv1d/ExpandDims/dim"], "attr": {"Tdim": {"type": "DT_INT32"}, "T": {"type": "DT_FLOAT"}}}, {"name": "StatefulPartitionedCall/dcresnet/conv1d_23/conv1d", "op": "Conv2D", "input": ["StatefulPartitionedCall/dcresnet/conv1d_23/conv1d/ExpandDims", "StatefulPartitionedCall/dcresnet/conv1d_23/conv1d/ExpandDims_1"], "device": "/device:CPU:0", "attr": {"explicit_paddings": {"list": {}}, "T": {"type": "DT_FLOAT"}, "use_cudnn_on_gpu": {"b": true}, "strides": {"list": {"i": ["1", "1", "1", "1"]}}, "padding": {"s": "U0FNRQ=="}, "data_format": {"s": "TkhXQw=="}, "dilations": {"list": {"i": ["1", "1", "1", "1"]}}}}, {"name": "StatefulPartitionedCall/dcresnet/conv1d_23/conv1d/Squeeze", "op": "Squeeze", "input": ["StatefulPartitionedCall/dcresnet/conv1d_23/conv1d"], "attr": {"squeeze_dims": {"list": {"i": ["-3"]}}, "T": {"type": "DT_FLOAT"}}}, {"name": "StatefulPartitionedCall/dcresnet/add_9/add", "op": "AddV2", "input": ["StatefulPartitionedCall/dcresnet/conv1d_23/conv1d/Squeeze", "StatefulPartitionedCall/dcresnet/add_8/add"], "attr": {"T": {"type": "DT_FLOAT"}}}, {"name": "StatefulPartitionedCall/dcresnet/batch_normalization_22/batchnorm/mul_1", "op": "Mul", "input": ["StatefulPartitionedCall/dcresnet/add_9/add", "StatefulPartitionedCall/dcresnet/batch_normalization_22/batchnorm/mul"], "attr": {"T": {"type": "DT_FLOAT"}}}, {"name": "StatefulPartitionedCall/dcresnet/batch_normalization_22/batchnorm/add_1", "op": "AddV2", "input": ["StatefulPartitionedCall/dcresnet/batch_normalization_22/batchnorm/mul_1", "StatefulPartitionedCall/dcresnet/batch_normalization_22/batchnorm/sub"], "attr": {"T": {"type": "DT_FLOAT"}}}, {"name": "StatefulPartitionedCall/dcresnet/activation_21/Relu", "op": "Relu", "input": ["StatefulPartitionedCall/dcresnet/batch_normalization_22/batchnorm/add_1"], "attr": {"T": {"type": "DT_FLOAT"}}}, {"name": "StatefulPartitionedCall/dcresnet/conv1d_24/conv1d/ExpandDims", "op": "ExpandDims", "input": ["StatefulPartitionedCall/dcresnet/activation_21/Relu", "StatefulPartitionedCall/dcresnet/conv1d_24/conv1d/ExpandDims/dim"], "attr": {"Tdim": {"type": "DT_INT32"}, "T": {"type": "DT_FLOAT"}}}, {"name": "StatefulPartitionedCall/dcresnet/conv1d_24/conv1d", "op": "Conv2D", "input": ["StatefulPartitionedCall/dcresnet/conv1d_24/conv1d/ExpandDims", "StatefulPartitionedCall/dcresnet/conv1d_24/conv1d/ExpandDims_1"], "device": "/device:CPU:0", "attr": {"explicit_paddings": {"list": {}}, "use_cudnn_on_gpu": {"b": true}, "data_format": {"s": "TkhXQw=="}, "dilations": {"list": {"i": ["1", "1", "1", "1"]}}, "padding": {"s": "U0FNRQ=="}, "strides": {"list": {"i": ["1", "1", "1", "1"]}}, "T": {"type": "DT_FLOAT"}}}, {"name": "StatefulPartitionedCall/dcresnet/conv1d_24/conv1d/Squeeze", "op": "Squeeze", "input": ["StatefulPartitionedCall/dcresnet/conv1d_24/conv1d"], "attr": {"squeeze_dims": {"list": {"i": ["-3"]}}, "T": {"type": "DT_FLOAT"}}}, {"name": "StatefulPartitionedCall/dcresnet/batch_normalization_23/batchnorm/mul_1", "op": "Mul", "input": ["StatefulPartitionedCall/dcresnet/conv1d_24/conv1d/Squeeze", "StatefulPartitionedCall/dcresnet/batch_normalization_23/batchnorm/mul"], "attr": {"T": {"type": "DT_FLOAT"}}}, {"name": "StatefulPartitionedCall/dcresnet/batch_normalization_23/batchnorm/add_1", "op": "AddV2", "input": ["StatefulPartitionedCall/dcresnet/batch_normalization_23/batchnorm/mul_1", "StatefulPartitionedCall/dcresnet/batch_normalization_23/batchnorm/sub"], "attr": {"T": {"type": "DT_FLOAT"}}}, {"name": "StatefulPartitionedCall/dcresnet/activation_22/Relu", "op": "Relu", "input": ["StatefulPartitionedCall/dcresnet/batch_normalization_23/batchnorm/add_1"], "attr": {"T": {"type": "DT_FLOAT"}}}, {"name": "StatefulPartitionedCall/dcresnet/conv1d_25/conv1d/ExpandDims", "op": "ExpandDims", "input": ["StatefulPartitionedCall/dcresnet/activation_22/Relu", "StatefulPartitionedCall/dcresnet/conv1d_25/conv1d/ExpandDims/dim"], "attr": {"Tdim": {"type": "DT_INT32"}, "T": {"type": "DT_FLOAT"}}}, {"name": "StatefulPartitionedCall/dcresnet/conv1d_25/conv1d", "op": "Conv2D", "input": ["StatefulPartitionedCall/dcresnet/conv1d_25/conv1d/ExpandDims", "StatefulPartitionedCall/dcresnet/conv1d_25/conv1d/ExpandDims_1"], "device": "/device:CPU:0", "attr": {"padding": {"s": "U0FNRQ=="}, "T": {"type": "DT_FLOAT"}, "explicit_paddings": {"list": {}}, "dilations": {"list": {"i": ["1", "1", "1", "1"]}}, "data_format": {"s": "TkhXQw=="}, "use_cudnn_on_gpu": {"b": true}, "strides": {"list": {"i": ["1", "1", "1", "1"]}}}}, {"name": "StatefulPartitionedCall/dcresnet/conv1d_25/conv1d/Squeeze", "op": "Squeeze", "input": ["StatefulPartitionedCall/dcresnet/conv1d_25/conv1d"], "attr": {"squeeze_dims": {"list": {"i": ["-3"]}}, "T": {"type": "DT_FLOAT"}}}, {"name": "StatefulPartitionedCall/dcresnet/add_10/add", "op": "AddV2", "input": ["StatefulPartitionedCall/dcresnet/conv1d_25/conv1d/Squeeze", "StatefulPartitionedCall/dcresnet/add_9/add"], "attr": {"T": {"type": "DT_FLOAT"}}}, {"name": "StatefulPartitionedCall/dcresnet/batch_normalization_24/batchnorm/mul_1", "op": "Mul", "input": ["StatefulPartitionedCall/dcresnet/add_10/add", "StatefulPartitionedCall/dcresnet/batch_normalization_24/batchnorm/mul"], "attr": {"T": {"type": "DT_FLOAT"}}}, {"name": "StatefulPartitionedCall/dcresnet/batch_normalization_24/batchnorm/add_1", "op": "AddV2", "input": ["StatefulPartitionedCall/dcresnet/batch_normalization_24/batchnorm/mul_1", "StatefulPartitionedCall/dcresnet/batch_normalization_24/batchnorm/sub"], "attr": {"T": {"type": "DT_FLOAT"}}}, {"name": "StatefulPartitionedCall/dcresnet/activation_23/Relu", "op": "Relu", "input": ["StatefulPartitionedCall/dcresnet/batch_normalization_24/batchnorm/add_1"], "attr": {"T": {"type": "DT_FLOAT"}}}, {"name": "StatefulPartitionedCall/dcresnet/conv1d_26/conv1d/ExpandDims", "op": "ExpandDims", "input": ["StatefulPartitionedCall/dcresnet/activation_23/Relu", "StatefulPartitionedCall/dcresnet/conv1d_26/conv1d/ExpandDims/dim"], "attr": {"T": {"type": "DT_FLOAT"}, "Tdim": {"type": "DT_INT32"}}}, {"name": "StatefulPartitionedCall/dcresnet/conv1d_26/conv1d", "op": "Conv2D", "input": ["StatefulPartitionedCall/dcresnet/conv1d_26/conv1d/ExpandDims", "StatefulPartitionedCall/dcresnet/conv1d_26/conv1d/ExpandDims_1"], "device": "/device:CPU:0", "attr": {"data_format": {"s": "TkhXQw=="}, "dilations": {"list": {"i": ["1", "1", "1", "1"]}}, "strides": {"list": {"i": ["1", "1", "1", "1"]}}, "padding": {"s": "U0FNRQ=="}, "use_cudnn_on_gpu": {"b": true}, "T": {"type": "DT_FLOAT"}, "explicit_paddings": {"list": {}}}}, {"name": "StatefulPartitionedCall/dcresnet/conv1d_26/conv1d/Squeeze", "op": "Squeeze", "input": ["StatefulPartitionedCall/dcresnet/conv1d_26/conv1d"], "attr": {"T": {"type": "DT_FLOAT"}, "squeeze_dims": {"list": {"i": ["-3"]}}}}, {"name": "StatefulPartitionedCall/dcresnet/batch_normalization_25/batchnorm/mul_1", "op": "Mul", "input": ["StatefulPartitionedCall/dcresnet/conv1d_26/conv1d/Squeeze", "StatefulPartitionedCall/dcresnet/batch_normalization_25/batchnorm/mul"], "attr": {"T": {"type": "DT_FLOAT"}}}, {"name": "StatefulPartitionedCall/dcresnet/batch_normalization_25/batchnorm/add_1", "op": "AddV2", "input": ["StatefulPartitionedCall/dcresnet/batch_normalization_25/batchnorm/mul_1", "StatefulPartitionedCall/dcresnet/batch_normalization_25/batchnorm/sub"], "attr": {"T": {"type": "DT_FLOAT"}}}, {"name": "StatefulPartitionedCall/dcresnet/activation_24/Relu", "op": "Relu", "input": ["StatefulPartitionedCall/dcresnet/batch_normalization_25/batchnorm/add_1"], "attr": {"T": {"type": "DT_FLOAT"}}}, {"name": "StatefulPartitionedCall/dcresnet/conv1d_27/conv1d/ExpandDims", "op": "ExpandDims", "input": ["StatefulPartitionedCall/dcresnet/activation_24/Relu", "StatefulPartitionedCall/dcresnet/conv1d_27/conv1d/ExpandDims/dim"], "attr": {"Tdim": {"type": "DT_INT32"}, "T": {"type": "DT_FLOAT"}}}, {"name": "StatefulPartitionedCall/dcresnet/conv1d_27/conv1d", "op": "Conv2D", "input": ["StatefulPartitionedCall/dcresnet/conv1d_27/conv1d/ExpandDims", "StatefulPartitionedCall/dcresnet/conv1d_27/conv1d/ExpandDims_1"], "device": "/device:CPU:0", "attr": {"explicit_paddings": {"list": {}}, "strides": {"list": {"i": ["1", "1", "1", "1"]}}, "data_format": {"s": "TkhXQw=="}, "dilations": {"list": {"i": ["1", "1", "1", "1"]}}, "T": {"type": "DT_FLOAT"}, "padding": {"s": "U0FNRQ=="}, "use_cudnn_on_gpu": {"b": true}}}, {"name": "StatefulPartitionedCall/dcresnet/conv1d_27/conv1d/Squeeze", "op": "Squeeze", "input": ["StatefulPartitionedCall/dcresnet/conv1d_27/conv1d"], "attr": {"T": {"type": "DT_FLOAT"}, "squeeze_dims": {"list": {"i": ["-3"]}}}}, {"name": "StatefulPartitionedCall/dcresnet/add_11/add", "op": "AddV2", "input": ["StatefulPartitionedCall/dcresnet/conv1d_27/conv1d/Squeeze", "StatefulPartitionedCall/dcresnet/add_10/add"], "attr": {"T": {"type": "DT_FLOAT"}}}, {"name": "StatefulPartitionedCall/dcresnet/batch_normalization_26/batchnorm/mul_1", "op": "Mul", "input": ["StatefulPartitionedCall/dcresnet/add_11/add", "StatefulPartitionedCall/dcresnet/batch_normalization_26/batchnorm/mul"], "attr": {"T": {"type": "DT_FLOAT"}}}, {"name": "StatefulPartitionedCall/dcresnet/batch_normalization_26/batchnorm/add_1", "op": "AddV2", "input": ["StatefulPartitionedCall/dcresnet/batch_normalization_26/batchnorm/mul_1", "StatefulPartitionedCall/dcresnet/batch_normalization_26/batchnorm/sub"], "attr": {"T": {"type": "DT_FLOAT"}}}, {"name": "StatefulPartitionedCall/dcresnet/activation_25/Relu", "op": "Relu", "input": ["StatefulPartitionedCall/dcresnet/batch_normalization_26/batchnorm/add_1"], "attr": {"T": {"type": "DT_FLOAT"}}}, {"name": "StatefulPartitionedCall/dcresnet/conv1d_28/conv1d/ExpandDims", "op": "ExpandDims", "input": ["StatefulPartitionedCall/dcresnet/activation_25/Relu", "StatefulPartitionedCall/dcresnet/conv1d_28/conv1d/ExpandDims/dim"], "attr": {"T": {"type": "DT_FLOAT"}, "Tdim": {"type": "DT_INT32"}}}, {"name": "StatefulPartitionedCall/dcresnet/conv1d_28/conv1d", "op": "Conv2D", "input": ["StatefulPartitionedCall/dcresnet/conv1d_28/conv1d/ExpandDims", "StatefulPartitionedCall/dcresnet/conv1d_28/conv1d/ExpandDims_1"], "device": "/device:CPU:0", "attr": {"strides": {"list": {"i": ["1", "1", "1", "1"]}}, "use_cudnn_on_gpu": {"b": true}, "padding": {"s": "U0FNRQ=="}, "T": {"type": "DT_FLOAT"}, "dilations": {"list": {"i": ["1", "1", "1", "1"]}}, "data_format": {"s": "TkhXQw=="}, "explicit_paddings": {"list": {}}}}, {"name": "StatefulPartitionedCall/dcresnet/conv1d_28/conv1d/Squeeze", "op": "Squeeze", "input": ["StatefulPartitionedCall/dcresnet/conv1d_28/conv1d"], "attr": {"T": {"type": "DT_FLOAT"}, "squeeze_dims": {"list": {"i": ["-3"]}}}}, {"name": "StatefulPartitionedCall/dcresnet/batch_normalization_27/batchnorm/mul_1", "op": "Mul", "input": ["StatefulPartitionedCall/dcresnet/conv1d_28/conv1d/Squeeze", "StatefulPartitionedCall/dcresnet/batch_normalization_27/batchnorm/mul"], "attr": {"T": {"type": "DT_FLOAT"}}}, {"name": "StatefulPartitionedCall/dcresnet/batch_normalization_27/batchnorm/add_1", "op": "AddV2", "input": ["StatefulPartitionedCall/dcresnet/batch_normalization_27/batchnorm/mul_1", "StatefulPartitionedCall/dcresnet/batch_normalization_27/batchnorm/sub"], "attr": {"T": {"type": "DT_FLOAT"}}}, {"name": "StatefulPartitionedCall/dcresnet/activation_26/Relu", "op": "Relu", "input": ["StatefulPartitionedCall/dcresnet/batch_normalization_27/batchnorm/add_1"], "attr": {"T": {"type": "DT_FLOAT"}}}, {"name": "StatefulPartitionedCall/dcresnet/conv1d_29/conv1d/ExpandDims", "op": "ExpandDims", "input": ["StatefulPartitionedCall/dcresnet/activation_26/Relu", "StatefulPartitionedCall/dcresnet/conv1d_29/conv1d/ExpandDims/dim"], "attr": {"T": {"type": "DT_FLOAT"}, "Tdim": {"type": "DT_INT32"}}}, {"name": "StatefulPartitionedCall/dcresnet/conv1d_29/conv1d", "op": "Conv2D", "input": ["StatefulPartitionedCall/dcresnet/conv1d_29/conv1d/ExpandDims", "StatefulPartitionedCall/dcresnet/conv1d_29/conv1d/ExpandDims_1"], "device": "/device:CPU:0", "attr": {"data_format": {"s": "TkhXQw=="}, "T": {"type": "DT_FLOAT"}, "padding": {"s": "U0FNRQ=="}, "dilations": {"list": {"i": ["1", "1", "1", "1"]}}, "use_cudnn_on_gpu": {"b": true}, "strides": {"list": {"i": ["1", "1", "1", "1"]}}, "explicit_paddings": {"list": {}}}}, {"name": "StatefulPartitionedCall/dcresnet/conv1d_29/conv1d/Squeeze", "op": "Squeeze", "input": ["StatefulPartitionedCall/dcresnet/conv1d_29/conv1d"], "attr": {"T": {"type": "DT_FLOAT"}, "squeeze_dims": {"list": {"i": ["-3"]}}}}, {"name": "StatefulPartitionedCall/dcresnet/add_12/add", "op": "AddV2", "input": ["StatefulPartitionedCall/dcresnet/conv1d_29/conv1d/Squeeze", "StatefulPartitionedCall/dcresnet/add_11/add"], "attr": {"T": {"type": "DT_FLOAT"}}}, {"name": "StatefulPartitionedCall/dcresnet/batch_normalization_28/batchnorm/mul_1", "op": "Mul", "input": ["StatefulPartitionedCall/dcresnet/add_12/add", "StatefulPartitionedCall/dcresnet/batch_normalization_28/batchnorm/mul"], "attr": {"T": {"type": "DT_FLOAT"}}}, {"name": "StatefulPartitionedCall/dcresnet/batch_normalization_28/batchnorm/add_1", "op": "AddV2", "input": ["StatefulPartitionedCall/dcresnet/batch_normalization_28/batchnorm/mul_1", "StatefulPartitionedCall/dcresnet/batch_normalization_28/batchnorm/sub"], "attr": {"T": {"type": "DT_FLOAT"}}}, {"name": "StatefulPartitionedCall/dcresnet/activation_27/Relu", "op": "Relu", "input": ["StatefulPartitionedCall/dcresnet/batch_normalization_28/batchnorm/add_1"], "attr": {"T": {"type": "DT_FLOAT"}}}, {"name": "StatefulPartitionedCall/dcresnet/conv1d_30/conv1d/ExpandDims", "op": "ExpandDims", "input": ["StatefulPartitionedCall/dcresnet/activation_27/Relu", "StatefulPartitionedCall/dcresnet/conv1d_30/conv1d/ExpandDims/dim"], "attr": {"Tdim": {"type": "DT_INT32"}, "T": {"type": "DT_FLOAT"}}}, {"name": "StatefulPartitionedCall/dcresnet/conv1d_32/conv1d/ExpandDims", "op": "ExpandDims", "input": ["StatefulPartitionedCall/dcresnet/activation_27/Relu", "StatefulPartitionedCall/dcresnet/conv1d_32/conv1d/ExpandDims/dim"], "attr": {"T": {"type": "DT_FLOAT"}, "Tdim": {"type": "DT_INT32"}}}, {"name": "StatefulPartitionedCall/dcresnet/conv1d_30/conv1d", "op": "Conv2D", "input": ["StatefulPartitionedCall/dcresnet/conv1d_30/conv1d/ExpandDims", "StatefulPartitionedCall/dcresnet/conv1d_30/conv1d/ExpandDims_1"], "device": "/device:CPU:0", "attr": {"use_cudnn_on_gpu": {"b": true}, "explicit_paddings": {"list": {}}, "T": {"type": "DT_FLOAT"}, "padding": {"s": "U0FNRQ=="}, "dilations": {"list": {"i": ["1", "1", "1", "1"]}}, "data_format": {"s": "TkhXQw=="}, "strides": {"list": {"i": ["1", "1", "1", "1"]}}}}, {"name": "StatefulPartitionedCall/dcresnet/conv1d_32/conv1d", "op": "Conv2D", "input": ["StatefulPartitionedCall/dcresnet/conv1d_32/conv1d/ExpandDims", "StatefulPartitionedCall/dcresnet/conv1d_32/conv1d/ExpandDims_1"], "device": "/device:CPU:0", "attr": {"dilations": {"list": {"i": ["1", "1", "1", "1"]}}, "strides": {"list": {"i": ["1", "1", "2", "1"]}}, "T": {"type": "DT_FLOAT"}, "explicit_paddings": {"list": {}}, "use_cudnn_on_gpu": {"b": true}, "padding": {"s": "U0FNRQ=="}, "data_format": {"s": "TkhXQw=="}}}, {"name": "StatefulPartitionedCall/dcresnet/conv1d_30/conv1d/Squeeze", "op": "Squeeze", "input": ["StatefulPartitionedCall/dcresnet/conv1d_30/conv1d"], "attr": {"squeeze_dims": {"list": {"i": ["-3"]}}, "T": {"type": "DT_FLOAT"}}}, {"name": "StatefulPartitionedCall/dcresnet/conv1d_32/conv1d/Squeeze", "op": "Squeeze", "input": ["StatefulPartitionedCall/dcresnet/conv1d_32/conv1d"], "attr": {"squeeze_dims": {"list": {"i": ["-3"]}}, "T": {"type": "DT_FLOAT"}}}, {"name": "StatefulPartitionedCall/dcresnet/batch_normalization_29/batchnorm/mul_1", "op": "Mul", "input": ["StatefulPartitionedCall/dcresnet/conv1d_30/conv1d/Squeeze", "StatefulPartitionedCall/dcresnet/batch_normalization_29/batchnorm/mul"], "attr": {"T": {"type": "DT_FLOAT"}}}, {"name": "StatefulPartitionedCall/dcresnet/batch_normalization_29/batchnorm/add_1", "op": "AddV2", "input": ["StatefulPartitionedCall/dcresnet/batch_normalization_29/batchnorm/mul_1", "StatefulPartitionedCall/dcresnet/batch_normalization_29/batchnorm/sub"], "attr": {"T": {"type": "DT_FLOAT"}}}, {"name": "StatefulPartitionedCall/dcresnet/activation_28/Relu", "op": "Relu", "input": ["StatefulPartitionedCall/dcresnet/batch_normalization_29/batchnorm/add_1"], "attr": {"T": {"type": "DT_FLOAT"}}}, {"name": "StatefulPartitionedCall/dcresnet/conv1d_31/conv1d/ExpandDims", "op": "ExpandDims", "input": ["StatefulPartitionedCall/dcresnet/activation_28/Relu", "StatefulPartitionedCall/dcresnet/conv1d_31/conv1d/ExpandDims/dim"], "attr": {"Tdim": {"type": "DT_INT32"}, "T": {"type": "DT_FLOAT"}}}, {"name": "StatefulPartitionedCall/dcresnet/conv1d_31/conv1d", "op": "Conv2D", "input": ["StatefulPartitionedCall/dcresnet/conv1d_31/conv1d/ExpandDims", "StatefulPartitionedCall/dcresnet/conv1d_31/conv1d/ExpandDims_1"], "device": "/device:CPU:0", "attr": {"strides": {"list": {"i": ["1", "1", "2", "1"]}}, "T": {"type": "DT_FLOAT"}, "use_cudnn_on_gpu": {"b": true}, "explicit_paddings": {"list": {}}, "padding": {"s": "U0FNRQ=="}, "dilations": {"list": {"i": ["1", "1", "1", "1"]}}, "data_format": {"s": "TkhXQw=="}}}, {"name": "StatefulPartitionedCall/dcresnet/conv1d_31/conv1d/Squeeze", "op": "Squeeze", "input": ["StatefulPartitionedCall/dcresnet/conv1d_31/conv1d"], "attr": {"squeeze_dims": {"list": {"i": ["-3"]}}, "T": {"type": "DT_FLOAT"}}}, {"name": "StatefulPartitionedCall/dcresnet/add_13/add", "op": "AddV2", "input": ["StatefulPartitionedCall/dcresnet/conv1d_31/conv1d/Squeeze", "StatefulPartitionedCall/dcresnet/conv1d_32/conv1d/Squeeze"], "attr": {"T": {"type": "DT_FLOAT"}}}, {"name": "StatefulPartitionedCall/dcresnet/batch_normalization_30/batchnorm/mul_1", "op": "Mul", "input": ["StatefulPartitionedCall/dcresnet/add_13/add", "StatefulPartitionedCall/dcresnet/batch_normalization_30/batchnorm/mul"], "attr": {"T": {"type": "DT_FLOAT"}}}, {"name": "StatefulPartitionedCall/dcresnet/batch_normalization_30/batchnorm/add_1", "op": "AddV2", "input": ["StatefulPartitionedCall/dcresnet/batch_normalization_30/batchnorm/mul_1", "StatefulPartitionedCall/dcresnet/batch_normalization_30/batchnorm/sub"], "attr": {"T": {"type": "DT_FLOAT"}}}, {"name": "StatefulPartitionedCall/dcresnet/activation_29/Relu", "op": "Relu", "input": ["StatefulPartitionedCall/dcresnet/batch_normalization_30/batchnorm/add_1"], "attr": {"T": {"type": "DT_FLOAT"}}}, {"name": "StatefulPartitionedCall/dcresnet/conv1d_33/conv1d/ExpandDims", "op": "ExpandDims", "input": ["StatefulPartitionedCall/dcresnet/activation_29/Relu", "StatefulPartitionedCall/dcresnet/conv1d_33/conv1d/ExpandDims/dim"], "attr": {"T": {"type": "DT_FLOAT"}, "Tdim": {"type": "DT_INT32"}}}, {"name": "StatefulPartitionedCall/dcresnet/conv1d_33/conv1d", "op": "Conv2D", "input": ["StatefulPartitionedCall/dcresnet/conv1d_33/conv1d/ExpandDims", "StatefulPartitionedCall/dcresnet/conv1d_33/conv1d/ExpandDims_1"], "device": "/device:CPU:0", "attr": {"explicit_paddings": {"list": {}}, "strides": {"list": {"i": ["1", "1", "1", "1"]}}, "use_cudnn_on_gpu": {"b": true}, "dilations": {"list": {"i": ["1", "1", "1", "1"]}}, "padding": {"s": "U0FNRQ=="}, "T": {"type": "DT_FLOAT"}, "data_format": {"s": "TkhXQw=="}}}, {"name": "StatefulPartitionedCall/dcresnet/conv1d_33/conv1d/Squeeze", "op": "Squeeze", "input": ["StatefulPartitionedCall/dcresnet/conv1d_33/conv1d"], "attr": {"squeeze_dims": {"list": {"i": ["-3"]}}, "T": {"type": "DT_FLOAT"}}}, {"name": "StatefulPartitionedCall/dcresnet/batch_normalization_31/batchnorm/mul_1", "op": "Mul", "input": ["StatefulPartitionedCall/dcresnet/conv1d_33/conv1d/Squeeze", "StatefulPartitionedCall/dcresnet/batch_normalization_31/batchnorm/mul"], "attr": {"T": {"type": "DT_FLOAT"}}}, {"name": "StatefulPartitionedCall/dcresnet/batch_normalization_31/batchnorm/add_1", "op": "AddV2", "input": ["StatefulPartitionedCall/dcresnet/batch_normalization_31/batchnorm/mul_1", "StatefulPartitionedCall/dcresnet/batch_normalization_31/batchnorm/sub"], "attr": {"T": {"type": "DT_FLOAT"}}}, {"name": "StatefulPartitionedCall/dcresnet/activation_30/Relu", "op": "Relu", "input": ["StatefulPartitionedCall/dcresnet/batch_normalization_31/batchnorm/add_1"], "attr": {"T": {"type": "DT_FLOAT"}}}, {"name": "StatefulPartitionedCall/dcresnet/conv1d_34/conv1d/ExpandDims", "op": "ExpandDims", "input": ["StatefulPartitionedCall/dcresnet/activation_30/Relu", "StatefulPartitionedCall/dcresnet/conv1d_34/conv1d/ExpandDims/dim"], "attr": {"T": {"type": "DT_FLOAT"}, "Tdim": {"type": "DT_INT32"}}}, {"name": "StatefulPartitionedCall/dcresnet/conv1d_34/conv1d", "op": "Conv2D", "input": ["StatefulPartitionedCall/dcresnet/conv1d_34/conv1d/ExpandDims", "StatefulPartitionedCall/dcresnet/conv1d_34/conv1d/ExpandDims_1"], "device": "/device:CPU:0", "attr": {"use_cudnn_on_gpu": {"b": true}, "dilations": {"list": {"i": ["1", "1", "1", "1"]}}, "data_format": {"s": "TkhXQw=="}, "explicit_paddings": {"list": {}}, "T": {"type": "DT_FLOAT"}, "padding": {"s": "U0FNRQ=="}, "strides": {"list": {"i": ["1", "1", "1", "1"]}}}}, {"name": "StatefulPartitionedCall/dcresnet/conv1d_34/conv1d/Squeeze", "op": "Squeeze", "input": ["StatefulPartitionedCall/dcresnet/conv1d_34/conv1d"], "attr": {"T": {"type": "DT_FLOAT"}, "squeeze_dims": {"list": {"i": ["-3"]}}}}, {"name": "StatefulPartitionedCall/dcresnet/add_14/add", "op": "AddV2", "input": ["StatefulPartitionedCall/dcresnet/conv1d_34/conv1d/Squeeze", "StatefulPartitionedCall/dcresnet/add_13/add"], "attr": {"T": {"type": "DT_FLOAT"}}}, {"name": "StatefulPartitionedCall/dcresnet/batch_normalization_32/batchnorm/mul_1", "op": "Mul", "input": ["StatefulPartitionedCall/dcresnet/add_14/add", "StatefulPartitionedCall/dcresnet/batch_normalization_32/batchnorm/mul"], "attr": {"T": {"type": "DT_FLOAT"}}}, {"name": "StatefulPartitionedCall/dcresnet/batch_normalization_32/batchnorm/add_1", "op": "AddV2", "input": ["StatefulPartitionedCall/dcresnet/batch_normalization_32/batchnorm/mul_1", "StatefulPartitionedCall/dcresnet/batch_normalization_32/batchnorm/sub"], "attr": {"T": {"type": "DT_FLOAT"}}}, {"name": "StatefulPartitionedCall/dcresnet/activation_31/Relu", "op": "Relu", "input": ["StatefulPartitionedCall/dcresnet/batch_normalization_32/batchnorm/add_1"], "attr": {"T": {"type": "DT_FLOAT"}}}, {"name": "StatefulPartitionedCall/dcresnet/conv1d_35/conv1d/ExpandDims", "op": "ExpandDims", "input": ["StatefulPartitionedCall/dcresnet/activation_31/Relu", "StatefulPartitionedCall/dcresnet/conv1d_35/conv1d/ExpandDims/dim"], "attr": {"T": {"type": "DT_FLOAT"}, "Tdim": {"type": "DT_INT32"}}}, {"name": "StatefulPartitionedCall/dcresnet/conv1d_35/conv1d", "op": "Conv2D", "input": ["StatefulPartitionedCall/dcresnet/conv1d_35/conv1d/ExpandDims", "StatefulPartitionedCall/dcresnet/conv1d_35/conv1d/ExpandDims_1"], "device": "/device:CPU:0", "attr": {"explicit_paddings": {"list": {}}, "dilations": {"list": {"i": ["1", "1", "1", "1"]}}, "strides": {"list": {"i": ["1", "1", "1", "1"]}}, "T": {"type": "DT_FLOAT"}, "padding": {"s": "U0FNRQ=="}, "data_format": {"s": "TkhXQw=="}, "use_cudnn_on_gpu": {"b": true}}}, {"name": "StatefulPartitionedCall/dcresnet/conv1d_35/conv1d/Squeeze", "op": "Squeeze", "input": ["StatefulPartitionedCall/dcresnet/conv1d_35/conv1d"], "attr": {"squeeze_dims": {"list": {"i": ["-3"]}}, "T": {"type": "DT_FLOAT"}}}, {"name": "StatefulPartitionedCall/dcresnet/batch_normalization_33/batchnorm/mul_1", "op": "Mul", "input": ["StatefulPartitionedCall/dcresnet/conv1d_35/conv1d/Squeeze", "StatefulPartitionedCall/dcresnet/batch_normalization_33/batchnorm/mul"], "attr": {"T": {"type": "DT_FLOAT"}}}, {"name": "StatefulPartitionedCall/dcresnet/batch_normalization_33/batchnorm/add_1", "op": "AddV2", "input": ["StatefulPartitionedCall/dcresnet/batch_normalization_33/batchnorm/mul_1", "StatefulPartitionedCall/dcresnet/batch_normalization_33/batchnorm/sub"], "attr": {"T": {"type": "DT_FLOAT"}}}, {"name": "StatefulPartitionedCall/dcresnet/activation_32/Relu", "op": "Relu", "input": ["StatefulPartitionedCall/dcresnet/batch_normalization_33/batchnorm/add_1"], "attr": {"T": {"type": "DT_FLOAT"}}}, {"name": "StatefulPartitionedCall/dcresnet/conv1d_36/conv1d/ExpandDims", "op": "ExpandDims", "input": ["StatefulPartitionedCall/dcresnet/activation_32/Relu", "StatefulPartitionedCall/dcresnet/conv1d_36/conv1d/ExpandDims/dim"], "attr": {"T": {"type": "DT_FLOAT"}, "Tdim": {"type": "DT_INT32"}}}, {"name": "StatefulPartitionedCall/dcresnet/conv1d_36/conv1d", "op": "Conv2D", "input": ["StatefulPartitionedCall/dcresnet/conv1d_36/conv1d/ExpandDims", "StatefulPartitionedCall/dcresnet/conv1d_36/conv1d/ExpandDims_1"], "device": "/device:CPU:0", "attr": {"data_format": {"s": "TkhXQw=="}, "use_cudnn_on_gpu": {"b": true}, "strides": {"list": {"i": ["1", "1", "1", "1"]}}, "T": {"type": "DT_FLOAT"}, "dilations": {"list": {"i": ["1", "1", "1", "1"]}}, "explicit_paddings": {"list": {}}, "padding": {"s": "U0FNRQ=="}}}, {"name": "StatefulPartitionedCall/dcresnet/conv1d_36/conv1d/Squeeze", "op": "Squeeze", "input": ["StatefulPartitionedCall/dcresnet/conv1d_36/conv1d"], "attr": {"T": {"type": "DT_FLOAT"}, "squeeze_dims": {"list": {"i": ["-3"]}}}}, {"name": "StatefulPartitionedCall/dcresnet/add_15/add", "op": "AddV2", "input": ["StatefulPartitionedCall/dcresnet/conv1d_36/conv1d/Squeeze", "StatefulPartitionedCall/dcresnet/add_14/add"], "attr": {"T": {"type": "DT_FLOAT"}}}, {"name": "StatefulPartitionedCall/dcresnet/batch_normalization_34/batchnorm/mul_1", "op": "Mul", "input": ["StatefulPartitionedCall/dcresnet/add_15/add", "StatefulPartitionedCall/dcresnet/batch_normalization_34/batchnorm/mul"], "attr": {"T": {"type": "DT_FLOAT"}}}, {"name": "StatefulPartitionedCall/dcresnet/batch_normalization_34/batchnorm/add_1", "op": "AddV2", "input": ["StatefulPartitionedCall/dcresnet/batch_normalization_34/batchnorm/mul_1", "StatefulPartitionedCall/dcresnet/batch_normalization_34/batchnorm/sub"], "attr": {"T": {"type": "DT_FLOAT"}}}, {"name": "StatefulPartitionedCall/dcresnet/activation_33/Relu", "op": "Relu", "input": ["StatefulPartitionedCall/dcresnet/batch_normalization_34/batchnorm/add_1"], "attr": {"T": {"type": "DT_FLOAT"}}}, {"name": "StatefulPartitionedCall/dcresnet/flatten/Reshape", "op": "Reshape", "input": ["StatefulPartitionedCall/dcresnet/activation_33/Relu", "StatefulPartitionedCall/dcresnet/flatten/Const"], "attr": {"T": {"type": "DT_FLOAT"}, "Tshape": {"type": "DT_INT32"}}}, {"name": "StatefulPartitionedCall/dcresnet/dense/BiasAdd", "op": "_FusedMatMul", "input": ["StatefulPartitionedCall/dcresnet/flatten/Reshape", "StatefulPartitionedCall/dcresnet/dense/MatMul/ReadVariableOp", "StatefulPartitionedCall/dcresnet/dense/BiasAdd/ReadVariableOp"], "device": "/device:CPU:0", "attr": {"T": {"type": "DT_FLOAT"}, "num_args": {"i": "1"}, "fused_ops": {"list": {"s": ["Qmlhc0FkZA=="]}}, "epsilon": {"f": 0.0}, "transpose_b": {"b": false}, "transpose_a": {"b": false}}}, {"name": "StatefulPartitionedCall/dcresnet/dense/Softmax", "op": "Softmax", "input": ["StatefulPartitionedCall/dcresnet/dense/BiasAdd"], "attr": {"T": {"type": "DT_FLOAT"}}}, {"name": "StatefulPartitionedCall/dcresnet/reshape/Shape", "op": "Shape", "input": ["StatefulPartitionedCall/dcresnet/dense/Softmax"], "attr": {"T": {"type": "DT_FLOAT"}, "out_type": {"type": "DT_INT32"}}}, {"name": "StatefulPartitionedCall/dcresnet/reshape/strided_slice", "op": "StridedSlice", "input": ["StatefulPartitionedCall/dcresnet/reshape/Shape", "StatefulPartitionedCall/dcresnet/reshape/strided_slice/stack", "StatefulPartitionedCall/dcresnet/reshape/strided_slice/stack_1", "StatefulPartitionedCall/dcresnet/reshape/strided_slice/stack_2"], "attr": {"shrink_axis_mask": {"i": "1"}, "ellipsis_mask": {"i": "0"}, "Index": {"type": "DT_INT32"}, "T": {"type": "DT_INT32"}, "end_mask": {"i": "0"}, "new_axis_mask": {"i": "0"}, "begin_mask": {"i": "0"}}}, {"name": "StatefulPartitionedCall/dcresnet/reshape/Reshape/shape", "op": "Pack", "input": ["StatefulPartitionedCall/dcresnet/reshape/strided_slice", "StatefulPartitionedCall/dcresnet/reshape/Reshape/shape/1", "StatefulPartitionedCall/dcresnet/reshape/Reshape/shape/2"], "attr": {"N": {"i": "3"}, "T": {"type": "DT_INT32"}, "axis": {"i": "0"}}}, {"name": "StatefulPartitionedCall/dcresnet/reshape/Reshape", "op": "Reshape", "input": ["StatefulPartitionedCall/dcresnet/dense/Softmax", "StatefulPartitionedCall/dcresnet/reshape/Reshape/shape"], "attr": {"T": {"type": "DT_FLOAT"}, "Tshape": {"type": "DT_INT32"}}}, {"name": "Identity", "op": "Identity", "input": ["StatefulPartitionedCall/dcresnet/reshape/Reshape"], "attr": {"T": {"type": "DT_FLOAT"}}}], "library": {}, "versions": {"producer": 716}}, "weightsManifest": [{"paths": ["group1-shard1of39.bin", "group1-shard2of39.bin", "group1-shard3of39.bin", "group1-shard4of39.bin", "group1-shard5of39.bin", "group1-shard6of39.bin", "group1-shard7of39.bin", "group1-shard8of39.bin", "group1-shard9of39.bin", "group1-shard10of39.bin", "group1-shard11of39.bin", "group1-shard12of39.bin", "group1-shard13of39.bin", "group1-shard14of39.bin", "group1-shard15of39.bin", "group1-shard16of39.bin", "group1-shard17of39.bin", "group1-shard18of39.bin", "group1-shard19of39.bin", "group1-shard20of39.bin", "group1-shard21of39.bin", "group1-shard22of39.bin", "group1-shard23of39.bin", "group1-shard24of39.bin", "group1-shard25of39.bin", "group1-shard26of39.bin", "group1-shard27of39.bin", "group1-shard28of39.bin", "group1-shard29of39.bin", "group1-shard30of39.bin", "group1-shard31of39.bin", "group1-shard32of39.bin", "group1-shard33of39.bin", "group1-shard34of39.bin", "group1-shard35of39.bin", "group1-shard36of39.bin", "group1-shard37of39.bin", "group1-shard38of39.bin", "group1-shard39of39.bin"], "weights": [{"name": "StatefulPartitionedCall/dcresnet/batch_normalization_32/batchnorm/mul", "shape": [512], "dtype": "float32"}, {"name": "StatefulPartitionedCall/dcresnet/batch_normalization_32/batchnorm/sub", "shape": [512], "dtype": "float32"}, {"name": "StatefulPartitionedCall/dcresnet/conv1d_35/conv1d/ExpandDims/dim", "shape": [], "dtype": "int32"}, {"name": "StatefulPartitionedCall/dcresnet/conv1d_35/conv1d/ExpandDims_1", "shape": [1, 3, 512, 512], "dtype": "float32"}, {"name": "StatefulPartitionedCall/dcresnet/batch_normalization_33/batchnorm/mul", "shape": [512], "dtype": "float32"}, {"name": "StatefulPartitionedCall/dcresnet/batch_normalization_33/batchnorm/sub", "shape": [512], "dtype": "float32"}, {"name": "StatefulPartitionedCall/dcresnet/conv1d_36/conv1d/ExpandDims/dim", "shape": [], "dtype": "int32"}, {"name": "StatefulPartitionedCall/dcresnet/conv1d_36/conv1d/ExpandDims_1", "shape": [1, 3, 512, 512], "dtype": "float32"}, {"name": "StatefulPartitionedCall/dcresnet/batch_normalization_30/batchnorm/mul", "shape": [512], "dtype": "float32"}, {"name": "StatefulPartitionedCall/dcresnet/batch_normalization_30/batchnorm/sub", "shape": [512], "dtype": "float32"}, {"name": "StatefulPartitionedCall/dcresnet/conv1d_33/conv1d/ExpandDims/dim", "shape": [], "dtype": "int32"}, {"name": "StatefulPartitionedCall/dcresnet/conv1d_33/conv1d/ExpandDims_1", "shape": [1, 3, 512, 512], "dtype": "float32"}, {"name": "StatefulPartitionedCall/dcresnet/batch_normalization_31/batchnorm/mul", "shape": [512], "dtype": "float32"}, {"name": "StatefulPartitionedCall/dcresnet/batch_normalization_31/batchnorm/sub", "shape": [512], "dtype": "float32"}, {"name": "StatefulPartitionedCall/dcresnet/conv1d_34/conv1d/ExpandDims/dim", "shape": [], "dtype": "int32"}, {"name": "StatefulPartitionedCall/dcresnet/conv1d_34/conv1d/ExpandDims_1", "shape": [1, 3, 512, 512], "dtype": "float32"}, {"name": "StatefulPartitionedCall/dcresnet/conv1d_30/conv1d/ExpandDims/dim", "shape": [], "dtype": "int32"}, {"name": "StatefulPartitionedCall/dcresnet/conv1d_30/conv1d/ExpandDims_1", "shape": [1, 3, 256, 512], "dtype": "float32"}, {"name": "StatefulPartitionedCall/dcresnet/batch_normalization_29/batchnorm/mul", "shape": [512], "dtype": "float32"}, {"name": "StatefulPartitionedCall/dcresnet/batch_normalization_29/batchnorm/sub", "shape": [512], "dtype": "float32"}, {"name": "StatefulPartitionedCall/dcresnet/conv1d_31/conv1d/ExpandDims/dim", "shape": [], "dtype": "int32"}, {"name": "StatefulPartitionedCall/dcresnet/conv1d_31/conv1d/ExpandDims_1", "shape": [1, 3, 512, 512], "dtype": "float32"}, {"name": "StatefulPartitionedCall/dcresnet/batch_normalization_26/batchnorm/mul", "shape": [256], "dtype": "float32"}, {"name": "StatefulPartitionedCall/dcresnet/batch_normalization_26/batchnorm/sub", "shape": [256], "dtype": "float32"}, {"name": "StatefulPartitionedCall/dcresnet/conv1d_28/conv1d/ExpandDims/dim", "shape": [], "dtype": "int32"}, {"name": "StatefulPartitionedCall/dcresnet/conv1d_28/conv1d/ExpandDims_1", "shape": [1, 3, 256, 256], "dtype": "float32"}, {"name": "StatefulPartitionedCall/dcresnet/batch_normalization_27/batchnorm/mul", "shape": [256], "dtype": "float32"}, {"name": "StatefulPartitionedCall/dcresnet/batch_normalization_27/batchnorm/sub", "shape": [256], "dtype": "float32"}, {"name": "StatefulPartitionedCall/dcresnet/conv1d_29/conv1d/ExpandDims/dim", "shape": [], "dtype": "int32"}, {"name": "StatefulPartitionedCall/dcresnet/conv1d_29/conv1d/ExpandDims_1", "shape": [1, 3, 256, 256], "dtype": "float32"}, {"name": "StatefulPartitionedCall/dcresnet/batch_normalization_24/batchnorm/mul", "shape": [256], "dtype": "float32"}, {"name": "StatefulPartitionedCall/dcresnet/batch_normalization_24/batchnorm/sub", "shape": [256], "dtype": "float32"}, {"name": "StatefulPartitionedCall/dcresnet/conv1d_26/conv1d/ExpandDims/dim", "shape": [], "dtype": "int32"}, {"name": "StatefulPartitionedCall/dcresnet/conv1d_26/conv1d/ExpandDims_1", "shape": [1, 3, 256, 256], "dtype": "float32"}, {"name": "StatefulPartitionedCall/dcresnet/batch_normalization_25/batchnorm/mul", "shape": [256], "dtype": "float32"}, {"name": "StatefulPartitionedCall/dcresnet/batch_normalization_25/batchnorm/sub", "shape": [256], "dtype": "float32"}, {"name": "StatefulPartitionedCall/dcresnet/conv1d_27/conv1d/ExpandDims/dim", "shape": [], "dtype": "int32"}, {"name": "StatefulPartitionedCall/dcresnet/conv1d_27/conv1d/ExpandDims_1", "shape": [1, 3, 256, 256], "dtype": "float32"}, {"name": "StatefulPartitionedCall/dcresnet/batch_normalization_22/batchnorm/mul", "shape": [256], "dtype": "float32"}, {"name": "StatefulPartitionedCall/dcresnet/batch_normalization_22/batchnorm/sub", "shape": [256], "dtype": "float32"}, {"name": "StatefulPartitionedCall/dcresnet/conv1d_24/conv1d/ExpandDims/dim", "shape": [], "dtype": "int32"}, {"name": "StatefulPartitionedCall/dcresnet/conv1d_24/conv1d/ExpandDims_1", "shape": [1, 3, 256, 256], "dtype": "float32"}, {"name": "StatefulPartitionedCall/dcresnet/batch_normalization_23/batchnorm/mul", "shape": [256], "dtype": "float32"}, {"name": "StatefulPartitionedCall/dcresnet/batch_normalization_23/batchnorm/sub", "shape": [256], "dtype": "float32"}, {"name": "StatefulPartitionedCall/dcresnet/conv1d_25/conv1d/ExpandDims/dim", "shape": [], "dtype": "int32"}, {"name": "StatefulPartitionedCall/dcresnet/conv1d_25/conv1d/ExpandDims_1", "shape": [1, 3, 256, 256], "dtype": "float32"}, {"name": "StatefulPartitionedCall/dcresnet/batch_normalization_20/batchnorm/mul", "shape": [256], "dtype": "float32"}, {"name": "StatefulPartitionedCall/dcresnet/batch_normalization_20/batchnorm/sub", "shape": [256], "dtype": "float32"}, {"name": "StatefulPartitionedCall/dcresnet/conv1d_22/conv1d/ExpandDims/dim", "shape": [], "dtype": "int32"}, {"name": "StatefulPartitionedCall/dcresnet/conv1d_22/conv1d/ExpandDims_1", "shape": [1, 3, 256, 256], "dtype": "float32"}, {"name": "StatefulPartitionedCall/dcresnet/batch_normalization_21/batchnorm/mul", "shape": [256], "dtype": "float32"}, {"name": "StatefulPartitionedCall/dcresnet/batch_normalization_21/batchnorm/sub", "shape": [256], "dtype": "float32"}, {"name": "StatefulPartitionedCall/dcresnet/conv1d_23/conv1d/ExpandDims/dim", "shape": [], "dtype": "int32"}, {"name": "StatefulPartitionedCall/dcresnet/conv1d_23/conv1d/ExpandDims_1", "shape": [1, 3, 256, 256], "dtype": "float32"}, {"name": "StatefulPartitionedCall/dcresnet/batch_normalization_18/batchnorm/mul", "shape": [256], "dtype": "float32"}, {"name": "StatefulPartitionedCall/dcresnet/batch_normalization_18/batchnorm/sub", "shape": [256], "dtype": "float32"}, {"name": "StatefulPartitionedCall/dcresnet/conv1d_20/conv1d/ExpandDims/dim", "shape": [], "dtype": "int32"}, {"name": "StatefulPartitionedCall/dcresnet/conv1d_20/conv1d/ExpandDims_1", "shape": [1, 3, 256, 256], "dtype": "float32"}, {"name": "StatefulPartitionedCall/dcresnet/batch_normalization_19/batchnorm/mul", "shape": [256], "dtype": "float32"}, {"name": "StatefulPartitionedCall/dcresnet/batch_normalization_19/batchnorm/sub", "shape": [256], "dtype": "float32"}, {"name": "StatefulPartitionedCall/dcresnet/conv1d_21/conv1d/ExpandDims/dim", "shape": [], "dtype": "int32"}, {"name": "StatefulPartitionedCall/dcresnet/conv1d_21/conv1d/ExpandDims_1", "shape": [1, 3, 256, 256], "dtype": "float32"}, {"name": "StatefulPartitionedCall/dcresnet/conv1d_17/conv1d/ExpandDims/dim", "shape": [], "dtype": "int32"}, {"name": "StatefulPartitionedCall/dcresnet/conv1d_17/conv1d/ExpandDims_1", "shape": [1, 3, 128, 256], "dtype": "float32"}, {"name": "StatefulPartitionedCall/dcresnet/batch_normalization_17/batchnorm/mul", "shape": [256], "dtype": "float32"}, {"name": "StatefulPartitionedCall/dcresnet/batch_normalization_17/batchnorm/sub", "shape": [256], "dtype": "float32"}, {"name": "StatefulPartitionedCall/dcresnet/conv1d_18/conv1d/ExpandDims/dim", "shape": [], "dtype": "int32"}, {"name": "StatefulPartitionedCall/dcresnet/conv1d_18/conv1d/ExpandDims_1", "shape": [1, 3, 256, 256], "dtype": "float32"}, {"name": "StatefulPartitionedCall/dcresnet/batch_normalization_14/batchnorm/mul", "shape": [128], "dtype": "float32"}, {"name": "StatefulPartitionedCall/dcresnet/batch_normalization_14/batchnorm/sub", "shape": [128], "dtype": "float32"}, {"name": "StatefulPartitionedCall/dcresnet/conv1d_15/conv1d/ExpandDims/dim", "shape": [], "dtype": "int32"}, {"name": "StatefulPartitionedCall/dcresnet/conv1d_15/conv1d/ExpandDims_1", "shape": [1, 3, 128, 128], "dtype": "float32"}, {"name": "StatefulPartitionedCall/dcresnet/batch_normalization_15/batchnorm/mul", "shape": [128], "dtype": "float32"}, {"name": "StatefulPartitionedCall/dcresnet/batch_normalization_15/batchnorm/sub", "shape": [128], "dtype": "float32"}, {"name": "StatefulPartitionedCall/dcresnet/conv1d_16/conv1d/ExpandDims/dim", "shape": [], "dtype": "int32"}, {"name": "StatefulPartitionedCall/dcresnet/conv1d_16/conv1d/ExpandDims_1", "shape": [1, 3, 128, 128], "dtype": "float32"}, {"name": "StatefulPartitionedCall/dcresnet/batch_normalization_12/batchnorm/mul", "shape": [128], "dtype": "float32"}, {"name": "StatefulPartitionedCall/dcresnet/batch_normalization_12/batchnorm/sub", "shape": [128], "dtype": "float32"}, {"name": "StatefulPartitionedCall/dcresnet/conv1d_13/conv1d/ExpandDims/dim", "shape": [], "dtype": "int32"}, {"name": "StatefulPartitionedCall/dcresnet/conv1d_13/conv1d/ExpandDims_1", "shape": [1, 3, 128, 128], "dtype": "float32"}, {"name": "StatefulPartitionedCall/dcresnet/batch_normalization_13/batchnorm/mul", "shape": [128], "dtype": "float32"}, {"name": "StatefulPartitionedCall/dcresnet/batch_normalization_13/batchnorm/sub", "shape": [128], "dtype": "float32"}, {"name": "StatefulPartitionedCall/dcresnet/conv1d_14/conv1d/ExpandDims/dim", "shape": [], "dtype": "int32"}, {"name": "StatefulPartitionedCall/dcresnet/conv1d_14/conv1d/ExpandDims_1", "shape": [1, 3, 128, 128], "dtype": "float32"}, {"name": "StatefulPartitionedCall/dcresnet/batch_normalization_10/batchnorm/mul", "shape": [128], "dtype": "float32"}, {"name": "StatefulPartitionedCall/dcresnet/batch_normalization_10/batchnorm/sub", "shape": [128], "dtype": "float32"}, {"name": "StatefulPartitionedCall/dcresnet/conv1d_11/conv1d/ExpandDims/dim", "shape": [], "dtype": "int32"}, {"name": "StatefulPartitionedCall/dcresnet/conv1d_11/conv1d/ExpandDims_1", "shape": [1, 3, 128, 128], "dtype": "float32"}, {"name": "StatefulPartitionedCall/dcresnet/batch_normalization_11/batchnorm/mul", "shape": [128], "dtype": "float32"}, {"name": "StatefulPartitionedCall/dcresnet/batch_normalization_11/batchnorm/sub", "shape": [128], "dtype": "float32"}, {"name": "StatefulPartitionedCall/dcresnet/conv1d_12/conv1d/ExpandDims/dim", "shape": [], "dtype": "int32"}, {"name": "StatefulPartitionedCall/dcresnet/conv1d_12/conv1d/ExpandDims_1", "shape": [1, 3, 128, 128], "dtype": "float32"}, {"name": "StatefulPartitionedCall/dcresnet/conv1d_8/conv1d/ExpandDims/dim", "shape": [], "dtype": "int32"}, {"name": "StatefulPartitionedCall/dcresnet/conv1d_8/conv1d/ExpandDims_1", "shape": [1, 3, 64, 128], "dtype": "float32"}, {"name": "StatefulPartitionedCall/dcresnet/batch_normalization_9/batchnorm/mul", "shape": [128], "dtype": "float32"}, {"name": "StatefulPartitionedCall/dcresnet/batch_normalization_9/batchnorm/sub", "shape": [128], "dtype": "float32"}, {"name": "StatefulPartitionedCall/dcresnet/conv1d_9/conv1d/ExpandDims/dim", "shape": [], "dtype": "int32"}, {"name": "StatefulPartitionedCall/dcresnet/conv1d_9/conv1d/ExpandDims_1", "shape": [1, 3, 128, 128], "dtype": "float32"}, {"name": "StatefulPartitionedCall/dcresnet/batch_normalization_6/batchnorm/mul", "shape": [64], "dtype": "float32"}, {"name": "StatefulPartitionedCall/dcresnet/batch_normalization_6/batchnorm/sub", "shape": [64], "dtype": "float32"}, {"name": "StatefulPartitionedCall/dcresnet/conv1d_6/conv1d/ExpandDims/dim", "shape": [], "dtype": "int32"}, {"name": "StatefulPartitionedCall/dcresnet/conv1d_6/conv1d/ExpandDims_1", "shape": [1, 3, 64, 64], "dtype": "float32"}, {"name": "StatefulPartitionedCall/dcresnet/batch_normalization_7/batchnorm/mul", "shape": [64], "dtype": "float32"}, {"name": "StatefulPartitionedCall/dcresnet/batch_normalization_7/batchnorm/sub", "shape": [64], "dtype": "float32"}, {"name": "StatefulPartitionedCall/dcresnet/conv1d_7/conv1d/ExpandDims/dim", "shape": [], "dtype": "int32"}, {"name": "StatefulPartitionedCall/dcresnet/conv1d_7/conv1d/ExpandDims_1", "shape": [1, 3, 64, 64], "dtype": "float32"}, {"name": "StatefulPartitionedCall/dcresnet/batch_normalization_4/batchnorm/mul", "shape": [64], "dtype": "float32"}, {"name": "StatefulPartitionedCall/dcresnet/batch_normalization_4/batchnorm/sub", "shape": [64], "dtype": "float32"}, {"name": "StatefulPartitionedCall/dcresnet/conv1d_4/conv1d/ExpandDims/dim", "shape": [], "dtype": "int32"}, {"name": "StatefulPartitionedCall/dcresnet/conv1d_4/conv1d/ExpandDims_1", "shape": [1, 3, 64, 64], "dtype": "float32"}, {"name": "StatefulPartitionedCall/dcresnet/batch_normalization_5/batchnorm/mul", "shape": [64], "dtype": "float32"}, {"name": "StatefulPartitionedCall/dcresnet/batch_normalization_5/batchnorm/sub", "shape": [64], "dtype": "float32"}, {"name": "StatefulPartitionedCall/dcresnet/conv1d_5/conv1d/ExpandDims/dim", "shape": [], "dtype": "int32"}, {"name": "StatefulPartitionedCall/dcresnet/conv1d_5/conv1d/ExpandDims_1", "shape": [1, 3, 64, 64], "dtype": "float32"}, {"name": "StatefulPartitionedCall/dcresnet/conv1d_1/conv1d/ExpandDims/dim", "shape": [], "dtype": "int32"}, {"name": "StatefulPartitionedCall/dcresnet/conv1d_1/conv1d/ExpandDims_1", "shape": [1, 3, 64, 64], "dtype": "float32"}, {"name": "StatefulPartitionedCall/dcresnet/batch_normalization_3/batchnorm/mul", "shape": [64], "dtype": "float32"}, {"name": "StatefulPartitionedCall/dcresnet/batch_normalization_3/batchnorm/sub", "shape": [64], "dtype": "float32"}, {"name": "StatefulPartitionedCall/dcresnet/conv1d_2/conv1d/ExpandDims/dim", "shape": [], "dtype": "int32"}, {"name": "StatefulPartitionedCall/dcresnet/conv1d_2/conv1d/ExpandDims_1", "shape": [1, 3, 64, 64], "dtype": "float32"}, {"name": "StatefulPartitionedCall/dcresnet/batch_normalization/batchnorm/mul", "shape": [1], "dtype": "float32"}, {"name": "StatefulPartitionedCall/dcresnet/batch_normalization/batchnorm/sub", "shape": [1], "dtype": "float32"}, {"name": "StatefulPartitionedCall/dcresnet/conv1d/conv1d/ExpandDims/dim", "shape": [], "dtype": "int32"}, {"name": "StatefulPartitionedCall/dcresnet/conv1d/conv1d/ExpandDims_1", "shape": [1, 7, 1, 64], "dtype": "float32"}, {"name": "StatefulPartitionedCall/dcresnet/batch_normalization_1/batchnorm/mul", "shape": [64], "dtype": "float32"}, {"name": "StatefulPartitionedCall/dcresnet/batch_normalization_1/batchnorm/sub", "shape": [64], "dtype": "float32"}, {"name": "StatefulPartitionedCall/dcresnet/max_pooling1d/ExpandDims/dim", "shape": [], "dtype": "int32"}, {"name": "StatefulPartitionedCall/dcresnet/batch_normalization_2/batchnorm/mul", "shape": [64], "dtype": "float32"}, {"name": "StatefulPartitionedCall/dcresnet/batch_normalization_2/batchnorm/sub", "shape": [64], "dtype": "float32"}, {"name": "StatefulPartitionedCall/dcresnet/conv1d_3/conv1d/ExpandDims/dim", "shape": [], "dtype": "int32"}, {"name": "StatefulPartitionedCall/dcresnet/conv1d_3/conv1d/ExpandDims_1", "shape": [1, 1, 64, 64], "dtype": "float32"}, {"name": "StatefulPartitionedCall/dcresnet/batch_normalization_8/batchnorm/mul", "shape": [64], "dtype": "float32"}, {"name": "StatefulPartitionedCall/dcresnet/batch_normalization_8/batchnorm/sub", "shape": [64], "dtype": "float32"}, {"name": "StatefulPartitionedCall/dcresnet/conv1d_10/conv1d/ExpandDims/dim", "shape": [], "dtype": "int32"}, {"name": "StatefulPartitionedCall/dcresnet/conv1d_10/conv1d/ExpandDims_1", "shape": [1, 1, 64, 128], "dtype": "float32"}, {"name": "StatefulPartitionedCall/dcresnet/batch_normalization_16/batchnorm/mul", "shape": [128], "dtype": "float32"}, {"name": "StatefulPartitionedCall/dcresnet/batch_normalization_16/batchnorm/sub", "shape": [128], "dtype": "float32"}, {"name": "StatefulPartitionedCall/dcresnet/conv1d_19/conv1d/ExpandDims/dim", "shape": [], "dtype": "int32"}, {"name": "StatefulPartitionedCall/dcresnet/conv1d_19/conv1d/ExpandDims_1", "shape": [1, 1, 128, 256], "dtype": "float32"}, {"name": "StatefulPartitionedCall/dcresnet/batch_normalization_28/batchnorm/mul", "shape": [256], "dtype": "float32"}, {"name": "StatefulPartitionedCall/dcresnet/batch_normalization_28/batchnorm/sub", "shape": [256], "dtype": "float32"}, {"name": "StatefulPartitionedCall/dcresnet/conv1d_32/conv1d/ExpandDims/dim", "shape": [], "dtype": "int32"}, {"name": "StatefulPartitionedCall/dcresnet/conv1d_32/conv1d/ExpandDims_1", "shape": [1, 1, 256, 512], "dtype": "float32"}, {"name": "StatefulPartitionedCall/dcresnet/batch_normalization_34/batchnorm/mul", "shape": [512], "dtype": "float32"}, {"name": "StatefulPartitionedCall/dcresnet/batch_normalization_34/batchnorm/sub", "shape": [512], "dtype": "float32"}, {"name": "StatefulPartitionedCall/dcresnet/flatten/Const", "shape": [2], "dtype": "int32"}, {"name": "StatefulPartitionedCall/dcresnet/dense/MatMul/ReadVariableOp", "shape": [16384, 2048], "dtype": "float32"}, {"name": "StatefulPartitionedCall/dcresnet/dense/BiasAdd/ReadVariableOp", "shape": [2048], "dtype": "float32"}, {"name": "StatefulPartitionedCall/dcresnet/reshape/strided_slice/stack", "shape": [1], "dtype": "int32"}, {"name": "StatefulPartitionedCall/dcresnet/reshape/strided_slice/stack_1", "shape": [1], "dtype": "int32"}, {"name": "StatefulPartitionedCall/dcresnet/reshape/strided_slice/stack_2", "shape": [1], "dtype": "int32"}, {"name": "StatefulPartitionedCall/dcresnet/reshape/Reshape/shape/1", "shape": [], "dtype": "int32"}, {"name": "StatefulPartitionedCall/dcresnet/reshape/Reshape/shape/2", "shape": [], "dtype": "int32"}]}]}